quick-draw-image-recognition-master/checkpoint.pth (torch, 909057 bytes, 6 tensors)

conv1.weight f4 [18, 1, 3, 3]
00000000: bd76 063d 654d 943e cf5b 803e 6319 c83e
00000010: ef92 2d3d f1b2 03be 36ca babd 9ff0 9d3e
00000020: 69cf a73e c771 4ebe c80d 9bbe f542 07be
00000030: ae48 7ebe 204c 423e f836 ba3e 37f5 c73e
00000040: 6a57 ac3e c2ec 893e be0b fcbc c01a 80be
00000050: 393d 77be 68bc 6d3e 1d23 843e 64de c3bd
00000060: 7ad0 b33e 0434 ec3d c52c ea3d 1daf 8f3e
00000070: 8561 f63e f4e6 e33e e95d 1e3e 9b69 013f
00000080: 6a63 073f 3093 b8bc 35a3 81bd add6 f23d
00000090: 27f0 93be 01d5 a2be 3d6e 28be 4e29 2fbe
000000a0: 8874 c53d 2f07 b63d 976d 92be 16d3 4c3e
000000b0: c434 d9bd 8809 403d b45c 99be 9721 34be
000000c0: dc45 b13e be84 a0be aad8 0ebe 2765 bb3c
000000d0: ff61 303e 43f1 d43c 53c4 a03e 6ccc 88bb
000000e0: f22e 0f3e 2295 423d d532 90be 5483 153b
000000f0: a0fc a7be 96ec 92be f09e 82be 62fd f2bd
00000100: c041 b63d be4e 4d3a 3894 b63e 004c cc3e
00000110: cce9 f53e d1f8 133e 43d0 9c3d 14be b43e
00000120: 94f3 9b3e a28b 0bbe d333 9ebd 2def a13d
00000130: 805c 873e 4156 2dbe 1fb7 86be 5c24 8dbc
00000140: 0cfc 7e3e 352a 90be 6f0b 343e 35a9 a43b
00000150: be39 8d3e 0af5 9fbe f67e 7abe 0c6a 8abe
00000160: 174f 34be f1c9 90be 39fb fb3e cab3 e83d
00000170: bc8c e53e acd0 4d3e c6c6 ab3e 64a4 e1bd
00000180: 569f c63d 67d4 d03e 152b d13e 1adb f03e
00000190: 5ea4 f23e 45fa e13e 12e7 283e 1979 f93e
000001a0: b567 ea3e e8c6 c73d 2df5 523e 1300 ce3e
000001b0: 1e15 4a3e 6e42 d23e 3c2c 773d c986 6ebe
000001c0: fa76 173e eb58 493e 5a89 e9bd c9d8 c13e
000001d0: 2c56 b4bc 790a 683e 4740 11be 8e44 503e
000001e0: 459a 7dbe 16e2 8ebe faed 803d cb07 483e
000001f0: 31fe f0bd 62f5 553e 1bb1 57be 6b03 04bd
00000200: 8474 87be 9e3f 4abe 3eb5 10be 16c2 8fbe
00000210: cb2d 423d e8a6 8abe 80eb 533e d678 853e
00000220: 841a 3ebe bd7d 25be b469 923e 9e42 9bbe
00000230: 8a07 dfbd 2666 29bd a6b7 60bc 1b06 c9bd
00000240: 1344 b4bd 38d9 44bd 2765 a0be 57df 6a3e
00000250: f43f f83d b60a edbd 6746 603e 048c d33e
00000260: 9b85 a63c 814c 393e e185 c8bd 84ba b63d
00000270: 99be 753e 77a3 61be 717c 67bd b552 8c3c
00000280: 174b 4bbe 5a2a 64be
0.03282808 0.28965297 0.25070044 0.3908187 0.042376455 -0.1286123 -0.091206 0.30847642
0.3277543 -0.2016059 -0.30283952 -0.13209136 -0.24832413 0.18974352 0.36370063 0.39054272
0.33660442 0.26938444 -0.030767318 -0.2502041 -0.24144448 0.23216403 0.2580804 -0.09563902
0.35119992 0.11533359 0.1143432 0.28063288 0.48121276 0.4451214 0.15465511 0.50551766
0.5288607 -0.022531122 -0.063299574 0.118573524 -0.2889416 -0.31803134 -0.16448303 -0.171056
0.09641367 0.08888089 -0.28599235 0.20002398 -0.10605767 0.04688409 -0.2995354 -0.17590939
0.3462361 -0.31351274 -0.13949838 0.022875382 0.17224883 0.025993949 0.31399783 -0.0041747596
0.13982752 0.047505505 -0.28163782 0.0022813873 -0.32809925 -0.28696126 -0.25511885 -0.11864735
0.088992596 0.0007831863 0.35659957 0.39901733 0.48029935 0.14450385 0.0765691 0.35301268
0.30459273 -0.13627484 -0.077247284 0.07906947 0.2643776 -0.16927435 -0.26311585 -0.017229252
0.24900836 -0.281572 0.17582487 0.005025054 0.27583116 -0.31241637 -0.24462494 -0.27034032
-0.17608295 -0.2827907 0.49215105 0.11362417 0.44833934 0.20099133 0.3355009 -0.11017683
0.0969836 0.4078705 0.4085318 0.4704216 0.47391027 0.44136253 0.16494396 0.48725203
0.45782247 0.09754735 0.2060134 0.40234432 0.19734618 0.41066307 0.06034492 -0.23293604
0.1479148 0.19662826 -0.11403151 0.37860706 -0.022013746 0.22660245 -0.14184676 0.20338652
-0.2476588 -0.27906865 0.062953904 0.19534223 -0.11767233 0.20894387 -0.21063654 -0.032229822
-0.26456082 -0.1975083 -0.14131638 -0.28077763 0.047406953 -0.27080464 0.20695305 0.26068753
-0.18564802 -0.16161247 0.2859627 -0.30324262 -0.1089011 -0.041357182 -0.01371566 -0.09815618
-0.088020466 -0.04805872 -0.31327173 0.2293676 0.12121573 -0.115743086 0.21901856 0.4131776
0.02032738 0.1809559 -0.097911604 0.08922294 0.23998488 -0.22035013 -0.05651516 0.017129282
-0.19852863 -0.22281781

conv1.bias f4 [18]
00000000: 5569 973e 334a 9738 0164 ba3d c9e0 cb3d
00000010: c127 81be 797f 853e 0a3d 70be ec03 813c
00000020: 4577 fa3e b215 503e cbe1 08bd 1488 6c3e
00000030: 73f5 73be 80ca 9abe a28f a9be b329 883e
00000040: 9808 1ab9 3505 8abe
0.2957255 7.214062e-05 0.091011055 0.09954984 -0.25225642 0.26073816 -0.23460785 0.01574894
0.4891912 0.20320776 -0.033418458 0.23098785 -0.238241 -0.3023262 -0.33117396 0.26594314
-0.00014689786 -0.26957098

fc1.weight f4 [64, 3528]
00000000: e920 a7ba 1036 87bc 5095 1f3b d92b 99ba
00000010: 0332 0c3c 93a9 603b 6608 9cbb 629c 43bc
00000020: 6542 35bc ed7e 483c 2f5e 8ebc c9ca 6eb9
00000030: 3b4a 243a f091 6c3c 1e53 593c e576 4ebc
00000040: 0881 21bc fe80 c63a ccdc bb3b afba 243c
00000050: 4e37 19bc 4e16 443c 8943 11bb 86ce 81bb
00000060: af6a b3bb bff1 29bc ba12 403c f7bf 2dbc
00000070: 5e90 0b3c f81c 02bc c3ec 443b 0895 07bc
00000080: ddfc 423c 2521 ed3a bbc7 8ebc 9630 08bc
00000090: 7c79 29bc d4d0 b7bb 9fd9 223c 6e61 11bc
000000a0: ab9b d43a 93ac 1a3a f174 013a 8ca9 733a
000000b0: b438 0f3c 7370 0a3b d576 213c 36cc 553b
000000c0: d254 8cba da70 f4bb 92fc 2cbb be47 983b
000000d0: 12b9 023c 9b2e 06bc 0a85 103c ab3f 8bbc
000000e0: b79f 81ba b9a7 8d3b f019 a93c 43be 98ba
000000f0: 30de a13b 2872 533c a16d 023c cfc5 553c
00000100: a8e8 73ba 77c4 423c 9bc2 803b 44e6 29bc
00000110: 3521 a3bb 6ee0 6a3c 6f09 e93b 78d2 05bc
00000120: 6dc8 863a e925 40bc f221 383b 4805 4a3c
00000130: abdd cbbb 4e76 703c 07d4 98bb 121f 0dbc
00000140: 76da cc3b 4d6c 473c 815d 5fbc 9cdf 8ebc
00000150: a695 7e3c 8f13 823c 933d 55bc 63b9 983b
00000160: 3f84 7b3c d09a 7b3b 2bc8 0bbb 77a5 25bc
00000170: a0c4 403c 0cab 44bc e67d ec39 def3 2e3b
00000180: 746c 613c 06df 293c c800 28bc 3b4b 05bb
00000190: 1600 4c3b 4265 643b eda6 55bb a1ef ca3b
000001a0: dfc8 153c 10bd 83bc 3bd2 02bc daa0 873c
000001b0: 3555 d43a b1e4 123c f08d 2e3c f90e a9bb
000001c0: 322e 6fbc bf54 af3c 7fea 19bc e10f 32bc
000001d0: f218 60bb 24fb 83bb df0d 7d3c 49c6 513c
000001e0: 6552 0a3c 925a d53b 0350 523c 3963 913a
000001f0: 05b6 173c 0c9d e1ba 661b 803b 17fa babb
00000200: cd91 203c dca2 8b3c f9d6 0d3c c40d edbb
00000210: b051 823c a3d4 41bc 82f1 47bc a7b5 123c
00000220: 7839 b5ba aa75 8e3b cf2a f53b 028c c5bb
00000230: 4d8c 543c 94bf 72bc 3d0f 213b b477 703b
00000240: 6555 07ba 340c c2bb fe3e 353c 15f7 15bc
00000250: 6cf3 443c 4727 bc3a 4739 eaba 29ad 523c
00000260: 3011 213c 8f7f 4d3c 1691 0c3b c406 0e3c
00000270: 7587 2cbc d8cb 293c ec36 083c 4681 703c
00000280: 4891 50bb eb20 06bc 7d7c 5f3c 4b0a 023a
00000290: c37e ca3b 6a98 87bc f0e1 62bc 53b8 bf3b
000002a0: b711 e0ba d12b 80bc 33c3 6db8 50d8 6fbc
000002b0: e624 95bc 9d32 ea3b 456b e83b c9c5 c3bb
000002c0: 8fc7 3fbc f08d 81bb 587a 30bc 3dd8 e8bb
000002d0: f9ae e53a c86a aa3b 5dd2 94bc 87c0 5c3c
000002e0: 75b9 673c b09f 2bbb 9e24 de3b 1532 1eb9
000002f0: f8dc 7dbb c3be 80bc 38af 183c 77b5 9ebc
00000300: dbcc 39ba 09bd 22bc cb31 f6bb 7138 fabb
00000310: eb6a a7b9 7f1e 81bc 96a5 40bc 0055 853c
00000320: caa2 273c c53a f2bb 5ab3 70bc 9039 63bc
00000330: 9eb0 633c 39b4 a5bb 1797 8a3c b7e9 043b
00000340: c7c6 bfba 8c04 aeba 9bf7 e8bb d466 253c
00000350: be31 adbb 5c80 0c3b 6a78 a83c b62d 5bbb
00000360: 4564 47bb 4b50 2f3c 4d47 0a3a 50b5 b8bb
00000370: c0b1 1dbc 7bfb 5ebc 5238 51bc 25c1 a3bb
00000380: c4ad a43b b5fa a7bb bc48 633c 7481 c63b
00000390: 8dcd 00bc 9d04 cc3a f366 93bc 1912 7f3c
000003a0: 83df 9e3c a4b4 9c3c 21df 66ba 1946 34ba
000003b0: 7cdf 6c3b 9f32 1abb d7f4 abbb 3d73 b33b
000003c0: 4750 a23c 4ef7 a63c cd22 163c a5ad 7f3c
000003d0: fe28 ebbb aab2 f4bb 0cc9 503c c3c7 823c
000003e0: 9e07 813c 9d63 f33b c564 873c 8dbf 4fba
000003f0: 3955 6e3c 6b53 123c 27b4 f6bb a7c8 023c
-0.0012750897 -0.016505271 0.0024350472 -0.0011686041 0.008556846 0.0034280762 -0.0047617434 -0.01193914
-0.011063193 0.012237293 -0.017378895 -0.00022772992 0.0006267165 0.014439091 0.013264446 -0.012601589
-0.009857424 0.0015144644 0.005733108 0.010054274 -0.009351565 0.0119682085 -0.0022165498 -0.003961387
-0.005475364 -0.010372578 0.011723215 -0.01060485 0.008518307 -0.007941477 0.0030048348 -0.008275278
0.011901108 0.0018091543 -0.017429223 -0.008312365 -0.010343906 -0.005609611 0.00993958 -0.008873327
0.0016220709 0.00059003494 0.0004938385 0.0009294979 0.008741546 0.0021124154 0.009854992 0.003262294
-0.0010706431 -0.007459742 -0.002639566 0.004647224 0.0079786945 -0.008189823 0.0088207815 -0.016998133
-0.0009889518 0.0043229726 0.02064225 -0.0011653382 0.004939817 0.012905635 0.007960708 0.0130476495
-0.0009304383 0.011887661 0.003929449 -0.010369841 -0.004978324 0.014335735 0.0071117203 -0.008167855
0.001028312 -0.0117277885 0.0028096405 0.012330361 -0.0062214932 0.014676644 -0.0046639475 -0.008613365
0.0062516285 0.012171817 -0.013633133 -0.01744061 0.015538609 0.015878467 -0.013015169 0.0046607717
0.015351354 0.0038391836 -0.0021329026 -0.010110251 0.011765629 -0.012003671 0.0004510723 0.002669565
0.013758767 0.010368114 -0.0102540925 -0.002033903 0.003112798 0.0034850393 -0.0032600716 0.006193117
0.00914213 -0.016081363 -0.007984693 0.016556192 0.001619971 0.008965657 0.010653958 -0.0051592556
-0.014598416 0.021402715 -0.009394287 -0.010868044 -0.0034194556 -0.004027741 0.015445202 0.0128036225
0.008442496 0.006511041 0.012836459 0.0011092193 0.009259705 -0.0017212941 0.003909516 -0.0057060826
0.009800387 0.01704543 0.0086572105 -0.007234307 0.015908092 -0.011830482 -0.012203576 0.008954442
-0.0013826331 0.0043475227 0.00748191 -0.006028653 0.012972903 -0.014816184 0.0024575733 0.0036692442
-0.0005162566 -0.005921865 0.011062382 -0.009153147 0.012020927 0.0014354967 -0.0017869853 0.012858667
0.009830758 0.012542619 0.0021448783 0.008668605 -0.010530342 0.010363542 0.008313876 0.014679259
-0.0031824876 -0.008186559 0.01364052 0.000496064 0.006179662 -0.016552169 -0.013847813 0.0058508306
-0.0017095123 -0.015645893 -5.6686997e-05 -0.014638975 -0.018206071 0.007147147 0.0070928656 -0.0059745056
-0.011705293 -0.003953688 -0.0107713565 -0.0071058557 0.0017523459 0.0052007176 -0.018166715 0.0134736365
0.0141433375 -0.002618771 0.0067792675 -0.00015086711 -0.0038736444 -0.015715962 0.009319119 -0.019373639
-0.0007087716 -0.009932765 -0.00751326 -0.007636123 -0.00031932382 -0.015761612 -0.011758229 0.016275883
0.010231683 -0.00739226 -0.014691198 -0.013868704 0.013897089 -0.0050568846 0.016917748 0.0020280906
-0.0014631384 -0.0013276502 -0.007109595 0.010095317 -0.0052854707 0.0021438813 0.02056523 -0.0033443994
-0.0030424756 0.010700296 0.0005274907 -0.0056368485 -0.009624898 -0.013609762 -0.012769775 -0.00499739
0.0050255973 -0.005126322 0.013872322 0.0060579125 -0.007861507 0.001556534 -0.017993426 0.01556828
0.019393688 0.019129105 -0.00088070525 -0.00068769004 0.003614395 -0.0023528708 -0.005247693 0.005476384
0.01981367 0.020381596 0.009163571 0.015605365 -0.0071765175 -0.0074675875 0.012743246 0.015964394
0.015750702 0.0074276463 0.016527543 -0.00079249666 0.014546686 0.008931021 -0.0075288 0.00798241

fc1.bias f4 [64]
00000000: 97c6 67bc 1006 6fbc bcd2 06b8 4a1e 743c
00000010: 32b6 1b3c bee6 e23b 7b82 923c 5836 e1bb
00000020: b437 74bb 757f 85bc 37e6 81bc 5420 b93b
00000030: b578 4a3c d01e 363c 7bb8 263b b4a3 70bc
00000040: 6d1a a33b 6f16 1bbc ed4c e03c beaa 543b
00000050: fb8c 5abc e00f 8d3c 587f 27bb 0734 43bb
00000060: ec25 2bbb 3011 5e3c 2839 5a3c ae06 3c3c
00000070: 2079 1a3b fd36 d33b 4b62 033d 12f6 263c
00000080: a1e9 4cbb f9c2 023c 5347 4f3b bb2f ae3c
00000090: ff4a dc3c c130 913b 1cd2 d63b baae 66bc
000000a0: 8619 033d 36ad f43c 5dde 5d3c 0b90 a93c
000000b0: aac7 80ba a2bb 593b 4d63 813c 44ec c7bb
000000c0: 3b1c 613c fd40 603c 5792 38ba 9d7c bbba
000000d0: ce2c ab39 68df 93bb b034 9d3c 2389 94bc
000000e0: 4f4e 93bb f64b 293c 366d 843c fe8b 59bc
000000f0: 0544 fabb fa8d fdb9 88a3 6d3c 41fd 6abc
-0.014146469 -0.014588848 -3.214435e-05 0.0148998 0.009503888 0.0069244793 0.017884484 -0.0068729334
-0.0037264647 -0.016296128 -0.015856845 0.0056496058 0.01235788 0.011115745 0.0025439549 -0.014687467
0.0049775154 -0.009465798 0.027380431 0.0032450403 -0.013339276 0.017219484 -0.002555808 -0.002978565
-0.0026115132 0.0135539025 0.013319291 0.011476202 0.0023570731 0.006445764 0.03207616 0.010190504
-0.0031267183 0.007981055 0.0031628206 0.021262994 0.02689123 0.0044308607 0.0065558087 -0.014079744
0.032006763 0.02986775 0.013541785 0.020698568 -0.000982513 0.003322341 0.01579442 -0.006101163
0.013739641 0.013687369 -0.00070408493 -0.0014304105 0.00032649044 -0.004512716 0.019190162 -0.018131798
-0.004495419 0.010333052 0.016165357 -0.013278006 -0.007637503 -0.000483617 0.014504321 -0.014342607

fc2.weight f4 [10, 64]
00000000: 9770 2ab9 931b a13d 819f f03c 0842 f7bb
00000010: 193c 82bd df97 dbbd 6616 d6bb 0e6b 75bd
00000020: b81d 8d3d fefb 183e 11d5 d93d a184 4bbd
00000030: 9bd1 acbd 3d36 77bc 7ce9 a73b 147f 3dbd
00000040: 2dd3 fabd ae1f 903d cb8b 06be 236c 05be
00000050: c800 db3d 329d 073e f5ee f4bd 5113 a23c
00000060: 8daa cdbd 4898 22be 6253 c6bd d429 ac3d
00000070: be35 ce3b bb8d 593e 80dd 223e 4978 a1bd
00000080: 91ad 83bc 4989 813d 0486 1f3e a51f 993c
00000090: 4fc5 093e 5e11 7f3d 9c88 2f3e 28ac 7b3d
000000a0: ad33 103e 12fd 18be 05ee 9dbd 634b f33c
000000b0: 61cd febd a60b 9bbd 26ee 19bd 942d eebd
000000c0: d128 acbd 586a 81bd e2cb 7d3c 276f 19bd
000000d0: 1a13 82bc 2cbc 27be eda7 c9bd edc9 0cbc
000000e0: 5ab7 bfbc 463a 0d3e 036f 34be 4421 133e
000000f0: 2fa7 1f3e 6011 8d3c 0124 2cbd 9c3f 9c3d
00000100: 016f af3c cb34 f93d 85c9 5ebd 337e adbd
00000110: fa72 51be 5ffc 91bd e685 9a3d 589e 073e
00000120: 57b4 963c 1ffa 8dbc ea62 db3d d6f8 f13d
00000130: acfc 9dbd 35b2 2e3d e0a4 13be 5494 80bd
00000140: be8c 94bd 2035 54bc 260e d4bd d965 1abd
00000150: b89a 473e eab4 4fbd 2baf 393e fa36 973d
00000160: 0f23 eabc e3c3 de3d a448 cc3d 461c 1bbe
00000170: 5c77 493b 0b5e 47bd 2b77 e23d 70ea 0b3d
00000180: 8167 acbd 35f3 a4bd 67eb 57bd e82a 713e
00000190: 1833 7d3d eb3f 223e 2138 5dbd 8fc6 cb3d
000001a0: 8d36 443d 3451 53be cdfb c8bd 139c 4e3e
000001b0: feeb 993d 9b4b 3ebc 774a 22be 03a0 073b
000001c0: c43f e9bd 1713 d8bc 2c4e 21be 08d5 08bd
000001d0: 5891 18be bc93 db3d 6584 bcbc 1dc7 71bd
000001e0: 7429 f53d b5ec 8cbd 05ce 82bd f9a0 e7bd
000001f0: f36c 1cbe 141c 73bd 3510 9c3d b5dd f9bd
00000200: b1ab e33d 4319 163e 4744 e3bd b22c c1bc
00000210: b6f8 39be 0275 02be 3bbf efbd 7ca5 36bd
00000220: 0624 3c3e e2be 933b 4ff7 883d c3b4 51bd
00000230: 3c60 2c3e 1ed1 bebd 3462 edbd 7f4a b6bd
00000240: 1096 76bd d551 e43d 86b4 0f3e c11e 65bd
00000250: ae23 a33d 752a 9bbd fba6 17bc c778 d53d
00000260: e6ff c5bd def3 08be 7b5a 893d 10fb ef3a
00000270: d735 cd3d 677a d0bc 87a9 52be 7cd6 11be
00000280: ad1c 6b3d 2c0d 54bd 340e d33c 286a 4c3d
00000290: 6d39 133e 62c4 22bb 2952 23bc 27e2 37bd
000002a0: 1bb0 61be b0b8 04be d31c 6b3d 5d14 3e3e
000002b0: 6082 93bb 4d1a e8bd eaed ca3d e71d 753e
000002c0: 9f5d 0abc 3cfb cebc 6133 f63d 23e6 51bc
000002d0: 7766 ac3b f2a5 293d 99eb acbd acbb 99bc
000002e0: 2a01 9fbd 46d5 24bd 78b0 483e 1d73 2bbe
000002f0: d2dd ce3d 9c60 b2bd 3321 3d3c 067f 393d
00000300: 9a23 07bd 3ade 0dbe 6e66 10bd 3b7b 2cbd
00000310: 657b 513e 5c6b bd3d d863 07be 0c6f 0d3d
00000320: 98f7 273d ff6c 83bd b95f e0bc 5b8c 283d
00000330: 45a4 203e 565b 4ebc c51b 1cbe 3083 a1bc
00000340: dc44 5c3d 0e09 d53d 96be 923d f8c9 e53d
00000350: e337 74bd 3c54 09be 0f9c f1bc 91de 6ebb
00000360: f521 aebd 7bfb 313e c6a0 98bd 7800 a83d
00000370: 3b47 3dbe c980 ea3d 97f2 30bb 00be 43be
00000380: 8514 acbd e407 f3bd 2c13 b33c 2fd1 223e
00000390: 5a03 5c3e 9ac6 3c3e dce6 b43d 956d 3fbd
000003a0: 1b9c a2bd 0f06 2c3e 2a89 a0bd b00b fe3d
000003b0: 4392 4bbe ac31 29bd 2289 3c3e d5a5 c2bd
000003c0: 9a46 dc3d d71f 043e c6ad 04be 9fae 503b
000003d0: c05c 053e 4454 cbbd f274 32bd 2a8f 19be
000003e0: 128a 51ba e84d ef3c 2134 4c3e 6b07 3c3d
000003f0: 03ed 54bd 0079 7e3a 0d7c 8f3d c533 b5bd
-0.00016254406 0.078665875 0.029372932 -0.0075457133 -0.06359119 -0.107223265 -0.006533432 -0.05991655
0.06890434 0.14939877 0.10636342 -0.04968703 -0.084384166 -0.015088615 0.005124269 -0.04626377
-0.1224731 0.070372924 -0.13139264 -0.13029532 0.106935084 0.13243559 -0.1195964 0.019784601
-0.100422956 -0.15878403 -0.09683873 0.084064156 0.0062930277 0.21245472 0.15904808 -0.07884271
-0.016073974 0.06325013 0.15578467 0.018691847 0.13454174 0.062272422 0.17141956 0.061443478
0.14082213 -0.14940289 -0.07711414 0.029699033 -0.12441517 -0.07570581 -0.03758063 -0.11629787
-0.084062226 -0.063191116 0.015490504 -0.03745952 -0.015878249 -0.16380376 -0.098464824 -0.008593065
-0.023402859 0.13791761 -0.17620473 0.14368159 0.15591119 0.0172202 -0.042026524 0.0762932
0.021415235 0.121682726 -0.054391403 -0.08471336 -0.20454016 -0.07128214 0.0754507 0.13243997
0.01839654 -0.017331181 0.10712226 0.1181504 -0.07714209 0.04265042 -0.14418364 -0.06278291
-0.07253407 -0.012952119 -0.10354261 -0.037694786 0.19492614 -0.050709642 0.18133228 0.07383533
-0.02858117 0.10877206 0.099747926 -0.15147504 0.003074131 -0.04867367 0.11057886 0.034159124
-0.08418179 -0.080542006 -0.05271473 0.23551524 0.061816305 0.15844695 -0.054008607 0.099499814
0.047903586 -0.20636445 -0.09813652 0.20176725 0.07515715 -0.011614705 -0.15848719 0.002069474
-0.113891155 -0.02637629 -0.15752476 -0.033406287 -0.14899194 0.107215375 -0.02301235 -0.05902778
0.11970797 -0.06881086 -0.06386951 -0.1131 -0.15275936 -0.05935295 0.07620279 -0.122004904
0.11116732 0.14658074 -0.11097007 -0.023580883 -0.18161282 -0.12739947 -0.11706396 -0.044591412
0.18373117 0.004508839 0.06687795 -0.05119778 0.16833586 -0.0931723 -0.115909964 -0.08900928
-0.060201705 0.11148421 0.14033708 -0.055937532 0.0796579 -0.075764574 -0.00925612 0.10423427
-0.096679494 -0.13374278 0.06706711 0.0018309075 0.10020035 -0.025448991 -0.20572482 -0.14241976
0.057400394 -0.051770374 0.025763609 0.049905926 0.14377375 -0.0024836292 -0.009968319 -0.04489341
-0.22039835 -0.12961078 0.057400536 0.18562455 -0.004501626 -0.113331415 0.0990866 0.23937188
-0.008445173 -0.025266282 0.120215185 -0.0128112165 0.005261238 0.041418023 -0.08443374 -0.018766247
-0.07763894 -0.040242456 0.19598567 -0.16743131 0.101009026 -0.08709833 0.01154356 0.045287155
-0.032992937 -0.13854304 -0.035253935 -0.04210971 0.20457228 0.09248993 -0.13221681 0.03452973
0.04100761 -0.06417274 -0.027389394 0.04114948 0.15687664 -0.012595018 -0.15244968 -0.019715875
0.053776607 0.10402118 0.07165258 0.11220163 -0.05962361 -0.13411039 -0.02949336 -0.0036448578
-0.085025705 0.17381088 -0.0745254 0.082032144 -0.18484204 0.11450345 -0.0027000064 -0.19115448
-0.08402351 -0.118667394 0.021859728 0.1590011 0.21485654 0.18435135 0.088330954 -0.046735365
-0.07939931 0.16799186 -0.07838662 0.12404573 -0.19880013 -0.041307136 0.18411687 -0.09504286
0.10755654 0.12902771 -0.12956914 0.0031842364 0.13023663 -0.09928182 -0.04356856 -0.14996019
-0.00079932914 0.029211953 0.1994176 0.04590551 -0.051983844 0.00097073615 0.07006083 -0.08847765

fc2.bias f4 [10]
00000000: ea6e 8bbd 21c8 a1bd 2b02 d2bd df61 abbc
00000010: 53e2 52bd 28b6 e3bc 0d58 e0bd d02f 9e3d
00000020: 0996 2f3d 3775 78bd
-0.068082646 -0.078995 -0.1025432 -0.020920692 -0.05148537 -0.02779682 -0.10954294 0.07723963
0.042867694 -0.06065866
