sketch_recognition_model/checkpoints/checkpoint_baseline.pth (torch, 490277 bytes, 16 tensors)

fc1.weight f4 [128, 784]
000000 a1 0a d0 3c 77 3b be 3b 15 46 d1 bc 60 c8 1e bc
       0.025395693 0.0058054286 -0.025546113 -0.009691328
000010 b7 ee 88 3c 4e 0b 51 3c fc eb e6 bc 31 05 b5 bc
       0.01671539 0.012759043 -0.028188698 -0.022097202
000020 7c 27 c6 3c b3 46 7e bc ae 4f fe 3c f3 0a 7b 3c
       0.02418875 -0.015519786 0.031043854 0.015322435
000030 ae 02 fd 3b ee 28 23 bb ee 30 0a 3b 50 3e 84 3c
       0.0077212667 -0.0024896222 0.0021086293 0.016142994
000040 ae 26 b1 3b c1 de 5b 3c 6e 33 55 bc 0e 35 ff bc
       0.0054062223 0.013419808 -0.01301275 -0.031153228
000050 be a9 ff bc c0 c4 84 bb f1 72 dc 3c d5 84 c8 bc
       -0.03120887 -0.0040517747 0.026910277 -0.024477402
000060 c3 25 c0 3c ea 20 a8 3c ea 8d 9d bc a0 fb 08 3d
       0.023455506 0.020523507 -0.019232709 0.033443093
000070 2e 0c 04 bd e3 64 a8 3c c3 7e d3 3c 4f 42 80 bc
       -0.032238178 0.020555919 0.02581728 -0.015656618
000080 96 18 be bc 85 e1 8d 3c ee 7b a9 3c be 36 e9 3c
       -0.023205083 0.01731945 0.020688977 0.028468486
000090 c6 98 34 3b 1d 21 53 bb b8 eb a4 bc 28 0e d1 bc
       0.002755688 -0.0032215782 -0.02013193 -0.025519446
0000a0 91 39 c3 3c 04 86 11 3c f1 78 01 bd ba 6c 48 bc
       0.02383116 0.0088820495 -0.03160948 -0.012232954
0000b0 88 00 a1 3c 43 88 0a bc e4 d0 06 bb 25 6f b8 3c
       0.019653574 -0.008455339 -0.0020571286 0.022513935
0000c0 ca d7 50 bc 65 17 e1 bc bd 80 8b bb e0 b2 14 3d
       -0.012746761 -0.027476976 -0.00425729 0.0363034
0000d0 52 df e7 bc 99 db 10 3d 17 40 02 bd f7 ca c6 bc
       -0.02830473 0.035365675 -0.031799402 -0.024266703
0000e0 81 66 f1 3c cf 36 e7 3c 92 f9 9c 3c a5 29 dc 3b
       0.029467823 0.028224377 0.019161973 0.0067188316
0000f0 e1 c8 e7 3c ba 07 14 bb 65 5f df 3c 25 15 ee bb
       0.028294029 -0.0022587613 0.027267167 -0.007265704
000100 0c 0d 5f 3c e1 47 40 3c 7f 58 f1 bc 96 e3 a6 bb
       0.01361395 0.011735887 -0.029461144 -0.0050930483
000110 a0 28 05 bc 62 7e 96 3c 02 f7 c9 3c 51 a6 a2 3c
       -0.008127362 0.01837081 0.024653915 0.019854696
000120 e7 ea b1 bb 71 0c 52 bd 44 3b 0e bd 73 4d f3 3c
       -0.005429614 -0.051281396 -0.03472449 0.029700017
000130 e3 a5 fe bc 2c 4e a9 bc 28 0e ad bc 84 87 e3 bc
       -0.03108496 -0.020667158 -0.021124914 -0.02777458
000140 13 05 96 bc 3c 3b 48 3c 45 e1 00 bc 63 37 88 bc
       -0.018312966 0.012221154 -0.007866208 -0.016627973
000150 01 46 f9 bc 14 54 b7 3c 9c 97 b2 3a 17 52 d3 3c
       -0.030428888 0.022378959 0.0013625505 0.02579598
000160 f2 42 eb 3c 29 6c 7f 3b 7a 01 b5 bb 2a 7e 58 ba
       0.028718445 0.003897438 -0.0055238577 -0.0008258546
000170 d5 2c 3a 3c a0 a0 78 bc 91 05 07 3d 7b cd b3 bb
       0.011363228 -0.015175015 0.032964293 -0.0054871417
000180 dc fd fa 3c 1a df 02 bb 61 d1 ff bc 40 4b 05 3d
       0.030638628 -0.0019969405 -0.03122777 0.032542467
000190 af 23 9b 3a 0c c2 26 bd 1f c7 8c bc 1e 28 3d 3c
       0.0011836196 -0.0407124 -0.017184792 0.011545209
0001a0 d7 ad 34 3c 0c ba 09 3d f0 86 4d bc 7d 0c 97 bb
       0.011027775 0.033624694 -0.012544379 -0.004609643
0001b0 55 dd 7c 3c 71 a5 88 3c 6e 8b fa 3b 2a ff d7 bc
       0.015433629 0.016680451 0.007646016 -0.026366789
0001c0 97 10 0f 3c 8f 7b ba 3c 22 39 d3 bc f7 37 0f 3d
       0.008731983 0.022763995 -0.025784079 0.03496548
0001d0 7a 35 5f 3c 22 90 c4 bc 3e 65 80 bc 19 8a 35 bc
       0.01362359 -0.02399451 -0.015673276 -0.011080288
0001e0 1d 15 d2 3c 65 4b 35 3c 1f 81 02 bc d4 36 df 3c
       0.025644833 0.011065339 -0.007965355 0.027247824
0001f0 86 78 e2 bc cd 47 44 bd 46 3e 51 bd 39 c5 62 bc
       -0.02764536 -0.047920037 -0.05108478 -0.013840967
000200 ef 37 19 bd 9e b2 c4 ba 53 b7 a7 bb 5f b7 ec bc
       -0.037406858 -0.0015006845 -0.0051182895 -0.028896032
000210 ad cf a5 bc 8b 5f cb 3a f1 3a c8 bc 64 0a d5 bc
       -0.02024063 0.0015516145 -0.024442168 -0.026005931
000220 fc e4 ad 3c 5b 39 80 bc 70 06 1c bd a0 01 1e 3c
       0.021227352 -0.01565235 -0.038092077 0.009643942
000230 bc ce a9 bc fc db ef bc 1b 21 99 3c 11 98 8d 3d
       -0.020728461 -0.029279701 0.018692544 0.0691377
000240 70 9f f5 3c 3d 76 31 3c 07 9c c5 39 23 ca d0 bc
       0.029983252 0.010831413 0.00037691017 -0.025487011
000250 cf d2 2e bc eb 55 31 3c cc 0d ff 3c 73 09 86 bc
       -0.010670378 0.010823707 0.031134509 -0.016361928
000260 1a 33 42 bc 2d d3 0e 3d 38 1a fb 3b 7f 59 7a bc
       -0.011853004 0.03486936 0.0076630376 -0.015280127
000270 ad 08 43 bc 93 da 65 bb 7f 87 92 3b 04 90 10 bd
       -0.011903924 -0.0035072907 0.004471719 -0.035293594
000280 fc 5b 88 3c b5 67 78 3b 73 cc be 3c e1 7f 02 3d
       0.016645424 0.003790361 0.023290848 0.031860236
000290 f8 5a 26 bd ca 38 24 bd 9c 5a fa 3c a5 0d 11 3b
       -0.0406141 -0.04009322 0.030560784 0.0022133377
0002a0 dc 62 21 3c e8 89 81 3b ca ae 4a 3c 7f 42 5d 3d
       0.00985023 0.0039532073 0.0123707745 0.054018494
0002b0 13 2d bf 3c df 6e 7d bc 83 f4 4e 3c 4f 8a 5a 3c
       0.023336923 -0.015468328 0.012631538 0.013338639
0002c0 32 7b fc 3c 85 6d 92 3b 6e c8 27 3d 3d 49 1d bc
       0.030820463 0.004468622 0.04096263 -0.009599981
0002d0 70 1e 7e 3c cd d3 90 3c 35 6a 07 3d 6a e9 87 bb
       0.015510187 0.01767912 0.03306027 -0.004147698
0002e0 da f7 28 3c 5b f5 27 bd a2 2c f2 bc 4f 58 c8 ba
       0.010312999 -0.041005474 -0.029562298 -0.0015285107
0002f0 4c 4e a8 bb 35 12 c1 bc b8 99 0e 3c 4a f2 c3 bc
       -0.005136287 -0.023568252 0.008703642 -0.023919243
000300 c9 04 16 bd d7 df 5b bd 4a 84 d0 bc ea 97 e8 3c
       -0.036625657 -0.053680267 -0.025453705 0.02839275
000310 4a 44 7e bc 18 5a 83 bb 55 20 d1 3c 75 44 22 3d
       -0.015519211 -0.0040085427 0.025528112 0.039616067
000320 e3 a9 b1 bc c5 88 e8 bc d4 1b aa 3c 61 58 1c 3d
       -0.021687454 -0.02838553 0.020765223 0.038170222
000330 c9 26 e5 3c 84 ae 33 bc a9 36 07 3d 24 7c 05 39
       0.027972596 -0.010966901 0.033011112 0.00012730114
000340 02 bb d9 bb b5 e1 b3 bc c1 50 bb bb 11 22 50 bd
       -0.0066446075 -0.021958211 -0.0057164137 -0.05081374
000350 ea 83 8b 3b 1d 22 a7 3c 9c df 96 3b 3a 41 af 3b
       0.0042576687 0.020402009 0.004604293 0.005348352
000360 ce f0 98 bc 97 09 1c bd af f0 5b bb ae b8 32 3b
       -0.018669512 -0.038095083 -0.0033560207 0.0027270722
000370 94 74 01 3c a2 7f 7e bc 8f fc 3b ba ea 4e 64 bc
       0.00790133 -0.01553336 -0.0007171118 -0.01393483
000380 dc fa e6 3a ea 7c 14 3d cf 1b 2b 3c 5f 59 3c 3d
       0.0017622369 0.03625194 0.010443642 0.04598367
000390 59 b1 b5 3c aa 40 c5 b9 b4 dd e2 3c 18 ce 99 3c
       0.022179293 -0.00037622947 0.027693607 0.018775031
0003a0 84 b2 86 3c 8e 24 85 ba 03 a1 81 bb 86 df ef bc
       0.016442545 -0.0010157989 -0.0039559617 -0.029281389
0003b0 47 8b 08 bc aa a2 14 bd a0 40 33 3d 8f 92 0b bd
       -0.008333988 -0.03628794 0.043762803 -0.034075316
0003c0 b2 2c f9 bc 7a e5 cd 3b f6 91 04 bd a8 67 1c bc
       -0.03041682 0.0062834593 -0.03236576 -0.009546198
0003d0 a2 3e bc bc 4d f5 12 3c 73 12 b8 bc ac a6 e7 bc
       -0.022979084 0.008969617 -0.022469735 -0.028277718
0003e0 c5 91 13 3c 74 d9 4b bd be 27 12 3b ae 49 23 bc
       0.009006922 -0.049767926 0.002230152 -0.009966297
0003f0 ce d0 8c 3c 73 a1 2a 3d 7d 67 45 3d f3 f0 4f 3c
       0.01718941 0.041657876 0.048194397 0.012691724

fc1.bias f4 [128]
000000 aa 45 61 bd 4a 54 32 3d 9d 24 b1 bc 63 92 46 bd
       -0.054998077 0.043537416 -0.021623904 -0.04847945
000010 16 4c 3e 3c 55 53 ad 3c e0 f5 91 bc 83 12 11 bd
       0.01161482 0.0211579 -0.017817438 -0.035418045
000020 35 65 53 bc 58 de b0 ba be 85 4b 3b 52 06 af bc
       -0.012902548 -0.0013493998 0.0031055058 -0.021365318
000030 41 2d 86 3b a9 9c 16 3d ce 0a 64 bd 13 53 98 bc
       0.00409475 0.036770497 -0.055674367 -0.0185943
000040 d9 7a 1f bd a3 6b 58 39 85 3a 25 3c 79 ec d7 3c
       -0.038935516 0.00020639463 0.010084753 0.026357876
000050 c5 0f 2f bc 40 c0 77 bd 59 f3 81 bc f3 26 98 bb
       -0.010684912 -0.06048608 -0.015863108 -0.004643315
000060 0f f7 59 3c 44 b6 f2 bc bf 1d 13 3d ac 02 b5 bc
       0.013303532 -0.029627927 0.03591704 -0.022096
000070 e0 9e 19 bd 18 5c 37 3d 78 84 40 bd d1 ba a3 bc
       -0.03750503 0.04476556 -0.047001332 -0.019986542
000080 40 8a c4 3b fc 58 07 bd 30 17 dc 3c e8 8e 11 bc
       0.005997926 -0.033043846 0.026866525 -0.008884169
000090 d5 e9 9a bd 7f dc 9b 3b 15 46 15 bc dc ac 66 bd
       -0.07564131 0.00475651 -0.009110947 -0.056317195
0000a0 dd 5c 79 bd 7a ab 5a 3b 72 28 b1 bc 20 dc 4e bd
       -0.060879577 0.0033366368 -0.021625731 -0.050502896
0000b0 bb a0 67 3c 14 6a e5 bb 82 4d 46 bb ce e1 85 3c
       0.014137442 -0.007001171 -0.00302586 0.016343024
0000c0 32 69 28 3d f5 4d 80 bd a6 09 a3 bc f5 5c 78 3c
       0.041115947 -0.06264869 -0.019902062 0.015158881
0000d0 e6 ed d2 3c bc 58 04 3d d7 67 b1 3c a8 28 44 bd
       0.025748204 0.032311186 0.02165596 -0.047890335
0000e0 fb 5d d1 bc 7f ce a2 3c b4 1f e2 bc e9 1a 7f bd
       -0.025557509 0.019873856 -0.027603008 -0.062281523
0000f0 f2 3d 50 3b f3 1e 09 3c 40 36 3e 3c e0 be ac bd
       0.0031775204 0.008369195 0.011609614 -0.08434844
000100 e0 75 25 3b db a8 b3 bb d1 84 e1 3a e5 a7 8d bc
       0.002524726 -0.0054827756 0.001720572 -0.017291972
000110 48 e9 39 bd fc eb 36 3c a2 91 24 3d a4 92 7b bd
       -0.04538849 0.0111646615 0.04017795 -0.061419144
000120 2f 6e 44 3c 86 97 54 3c 66 03 12 bd 6b c7 c0 bc
       0.01198916 0.012975579 -0.035647772 -0.02353259
000130 b3 5e 98 3c 2e b3 69 ba 8d 22 fb 3b 83 10 6c 3d
       0.018599844 -0.00089149445 0.007664031 0.057632934
000140 76 6b 87 bb 34 0f d6 3a 08 fe 76 3b 90 58 72 3b
       -0.0041326834 0.0016331435 0.0037688036 0.0036979057
000150 d4 98 14 3d e0 36 86 bc aa 26 86 3d ff 3a 93 3c
       0.03627856 -0.016383588 0.06550343 0.017972467
000160 f4 fd 25 bc b3 1a 52 bc f9 47 11 bc ba cd 7c 3d
       -0.010131348 -0.012823748 -0.008867257 0.061719634
000170 e3 84 da 3c b3 2f 21 bd a8 bc de bc 94 61 68 bc
       0.026674693 -0.03935213 -0.027189568 -0.014183421
000180 8d 52 15 bd 70 0d b6 3c f5 ae 55 bc 6d bd 85 bc
       -0.03645568 0.022223204 -0.013042201 -0.016325677
000190 72 62 b5 bc ad a0 25 3a 36 bc 27 3d 4a bf 54 3d
       -0.022141669 0.0006318193 0.040950976 0.05194024
0001a0 fc b9 a9 bc f8 d3 51 3d a3 bd 0a 3d 9d a0 7e bc
       -0.020718567 0.05122754 0.033872258 -0.015541223
0001b0 27 9c b7 3c 08 73 0e bd 4a eb 6b bc d9 e2 ea 3b
       0.022413326 -0.03477767 -0.014399359 0.0071681556
0001c0 51 79 89 3c 16 b7 56 3b 71 c7 11 bd cd 2a d1 bb
       0.016781481 0.0032762936 -0.035590593 -0.006383276
0001d0 e7 3c fb bc 48 ca ee b9 7c 25 1d 3c 62 3a 81 bd
       -0.030668689 -0.0004554561 0.0095914565 -0.06309964
0001e0 56 ae dd 3b 38 d1 b7 3c cb df f7 bc c7 45 bf bc
       0.006765167 0.02243863 -0.03025808 -0.023348702
0001f0 16 9f 8a bd 8a 01 33 3d 1d d7 68 bd 88 94 98 3c
       -0.067686245 0.04370264 -0.056845773 0.018625513

fc2.weight f4 [100, 128]
000000 c7 5d 39 bd 43 2a 52 bd f2 53 87 3d 90 76 4c bd
       -0.04525545 -0.051309835 0.06607808 -0.049917758
000010 e1 9f 8d 3d 28 34 5a bc a3 bd 33 3d 0f 87 b3 bc
       0.0691526 -0.013318099 0.043882024 -0.021914987
000020 de b8 23 bd 2f c1 4a 3d 21 9e 16 bc 21 cf 27 bd
       -0.039971225 0.04950064 -0.009192974 -0.040969018
000030 f2 a5 fa 3b 92 92 5c bd 72 35 3e 3d e7 d5 3b bd
       0.0076491768 -0.053850718 0.04643769 -0.04585829
000040 5e 79 ef bc 60 72 a2 3d a9 b7 10 3c 33 57 64 3d
       -0.029232677 0.079319715 0.0088328505 0.055747222
000050 5f c8 51 3d 28 2b ab 3c 7b 18 13 bd 99 ae 2a bd
       0.05121648 0.020894602 -0.03591202 -0.041670416
000060 84 93 a7 3d 25 2f ea bc 0b 81 0c bd a9 fb 35 bd
       0.08182433 -0.028586933 -0.034302752 -0.044429455
000070 b3 32 82 bd a7 6d 3c 3d b9 b7 76 3d d0 d4 a9 3d
       -0.06357326 0.04600301 0.060233805 0.08292544
000080 04 0e 86 3a 58 50 ea 3c 25 be 9d 3d e7 7c 30 bc
       0.0010227566 0.028602764 0.07702283 -0.010771967
000090 ff e6 ba 3c 44 a4 74 3d 48 19 d8 39 8d dc 86 bd
       0.022815226 0.05972697 0.00041217566 -0.065850355
0000a0 6f fc 91 bd 86 f3 88 bd 1e 0f 50 bc f0 55 71 3c
       -0.07128226 -0.066870734 -0.012698917 0.014729962
0000b0 14 15 11 bd b6 11 80 bd 82 2a 80 3b 70 0c 3b 3d
       -0.035420492 -0.06253378 0.0039113173 0.04566616
0000c0 70 e2 14 3c 01 71 d4 bc e7 92 87 bd c7 e4 cf bc
       0.00908719 -0.02593279 -0.06619816 -0.025377644
0000d0 d3 24 de bc 2e 41 2e 3d 0a 1b 97 bd be a0 83 bd
       -0.027117169 0.04254263 -0.07378204 -0.064271435
0000e0 73 00 4b bc e3 03 9a 3d 3b cf 98 bd be 22 c5 3c
       -0.012390244 0.075202726 -0.07461401 0.024064418
0000f0 c5 bb ae bd 84 2d 79 bd a1 40 a4 bd 97 9e 34 bd
       -0.08531908 -0.060834423 -0.080201395 -0.044096556
000100 6e 5f 83 3c dc fc 51 3d 72 47 c3 bd 16 58 6a 3c
       0.016036715 0.051266536 -0.095351115 0.014303228
000110 00 ab 53 bd 94 fe 67 ba c1 11 d4 bc 6f 11 4c 3d
       -0.05167675 -0.0008849886 -0.025887372 0.049821313
000120 7d b9 48 3d 22 8f c2 3d eb 5f fa 3b da df 17 3d
       0.04900502 0.09499957 0.007640829 0.037078716
000130 38 3a 50 3d 61 3f c8 bd 79 99 d1 3c 01 26 4a bd
       0.05083677 -0.097777136 0.025585877 -0.04935265
000140 b7 e2 cb 3d 44 ee 7a ba b9 9d d6 bc d1 84 27 3c
       0.09955352 -0.00095722475 -0.026198255 0.010224537
000150 d8 2a b5 3c da 7c 44 bd 1f d4 11 bc 7c 44 77 bc
       0.022115156 -0.04797063 -0.008900671 -0.015092012
000160 d8 0d af 3c 3e 8a d3 3c d1 c6 4a bd 39 a6 c4 bd
       0.021368906 0.025822755 -0.049506012 -0.09602017
000170 bd 94 6b 3c 43 c6 d4 bd 1d d3 02 bd 10 6e 8e bd
       0.014378724 -0.10389378 -0.031939615 -0.069545865
000180 15 07 92 3d c1 d0 02 3d e9 38 80 3b fe 5f 96 bd
       0.07130257 0.031937364 0.003913034 -0.07342528
000190 fd 9e 15 bd 32 10 c9 bc 75 0a ab bd 14 4b 5e 3d
       -0.036528576 -0.024543855 -0.08351604 0.05427082
0001a0 3b 32 63 3d c2 94 83 3d 8d 5a ed 3c d9 03 10 bd
       0.055467825 0.06424858 0.028973842 -0.03515992
0001b0 8b 4a ee bc ff bb 02 bd 7e 50 0d bd 56 86 08 bd
       -0.02908828 -0.03191757 -0.03450059 -0.033331238
0001c0 ef 54 9c bd d4 5f 35 bd e6 ad 31 3d 34 89 b0 bc
       -0.07633387 -0.044280842 0.043378733 -0.021549799
0001d0 0e c7 e1 bb 81 57 7e 3c a5 62 4f bd bc 4f 3f bd
       -0.0068901842 0.015523792 -0.050631184 -0.0467069
0001e0 b5 0a c0 bd bb f2 4d bd b1 b4 92 3d 1d 23 cf 3c
       -0.09377042 -0.050280314 0.071633704 0.025285298
0001f0 a8 5d 6c 3d 50 ab d7 bd ff 47 db bc ee e9 92 bc
       0.057706505 -0.10530722 -0.026767729 -0.017933812
000200 6a b8 05 3c 0d 34 8a 3d b5 4d 9b bb ae 33 c2 3c
       0.0081616435 0.06748209 -0.004739488 0.023706283
000210 fc 53 d9 3d b0 88 8a 3d 74 be 1e 3d df 05 ae bd
       0.10611722 0.06764352 0.03875585 -0.084972136
000220 a6 cf 70 3d 18 ad 54 3d 9d 1d 50 3b 7a 77 cd 3c
       0.05879178 0.051922888 0.0031755932 0.025081385
000230 8b b5 9c 3d e2 39 89 3d 50 f8 e1 3d ed b0 82 bd
       0.07651814 0.067004934 0.1103369 -0.06381402
000240 bd 6f 12 bc 8e e1 63 bd 7e 4d 95 3c 05 44 4c bd
       -0.008937773 -0.055635028 0.018225428 -0.049869556
000250 ad ce 96 bb d0 ff 0f bd 81 e9 88 b9 c8 41 65 bb
       -0.0046022744 -0.03515607 -0.00026113915 -0.0034981836
000260 47 b2 f0 bb ed 22 df 3c 2c 7f cf 3c 33 9f b9 3d
       -0.007345471 0.027238334 0.025329195 0.09063568
000270 7d 81 81 3d 24 ac 5f bd 9f 45 d5 3c 99 1b a4 bc
       0.06323526 -0.054607525 0.026034174 -0.02003269
000280 92 46 60 bd 1a 9a bb 3d 0c 79 5a 3c 95 57 ba bd
       -0.0547548 0.09160252 0.013334524 -0.09098736
000290 ad 8f 8e bd 74 81 29 bd a1 cf 4e 3c f9 19 15 3d
       -0.06960998 -0.04138322 0.012622745 0.036401723
0002a0 d8 0c 2b 3d 6a be 37 bc d3 30 4c 3d ed 72 5b bd
       0.041760296 -0.011214832 0.04985125 -0.0535764
0002b0 15 f2 9c bd c7 d9 ab bd 40 8c de 3d b7 f2 5c bd
       -0.07663361 -0.08391147 0.10866594 -0.05394241
0002c0 ee ff 7a 3d a4 46 ef bc a7 1a e7 bd 5c d3 84 3d
       0.06127923 -0.029208489 -0.112843804 0.06485626
0002d0 d5 17 25 3d d9 ec a4 bc f6 63 04 bc 57 0e 0e bd
       0.04030593 -0.020132469 -0.008080473 -0.034681644
0002e0 97 a4 c9 bc 49 b3 83 bc 7c 04 c2 bd 0d 9f 81 bd
       -0.024614615 -0.0160767 -0.094735116 -0.06329165
0002f0 b5 aa 77 bd bf 67 b4 3d 09 75 90 bc bf 77 31 3c
       -0.060465533 0.088088505 -0.017633932 0.010831772
000300 b8 f5 78 bd b1 dc 8c bc 73 5d a1 3d 48 b6 e8 bd
       -0.06078121 -0.017195078 0.07879152 -0.113628924
000310 c8 74 ca 3b 89 85 ba 3c 09 7e ff bb 53 02 3b bb
       0.006178472 0.022768753 -0.007797007 -0.002853532
000320 3d f8 c3 3d e0 36 96 bc 20 2d 40 3d 68 65 75 3d
       0.09568832 -0.018336713 0.046918035 0.05991116
000330 ac a0 15 3d 1a 3b 83 3d 2b b5 b6 3d d3 d6 04 bc
       0.03653018 0.06407757 0.08921274 -0.008107859
000340 46 9e 87 bd d6 e5 c3 bd c8 56 0f bc dc 9b bf 3d
       -0.06621985 -0.09565322 -0.008748718 0.093559
000350 24 ae b4 bc 1b 06 68 bd 82 ee 5e 3d 71 e6 89 3d
       -0.022055693 -0.056646448 0.054426678 0.06733406
000360 80 04 a8 bd 85 53 a8 3d 7d e3 1b bd 71 96 ac 3b
       -0.08203983 0.08219055 -0.038058747 0.0052669575
000370 0c 76 88 bd 31 b6 67 3d 72 94 d1 3c 63 9b 13 bd
       -0.06663141 0.056570236 0.02558348 -0.03603686
000380 7a d5 61 bd b9 4a b5 bb cf f8 49 3d d1 23 9e bd
       -0.055135228 -0.0055325893 0.049309548 -0.07721675
000390 be fa b4 bc 7f 58 d8 3c cd b0 d5 bd 09 aa 88 3b
       -0.02209222 0.026409386 -0.10434113 0.0041706604
0003a0 03 67 85 3d 0a fb 05 bd 85 95 27 bc ab c9 9e 3d
       0.065137886 -0.032710113 -0.010228519 0.07753309
0003b0 06 5c d6 bb a0 2d c6 bc 46 e4 72 3d 7b cf 39 bd
       -0.006541732 -0.024191678 0.05929973 -0.045363884
0003c0 e0 45 2a bc be 87 3f bd 10 b2 ba bc 48 85 22 3c
       -0.010392636 -0.046760313 -0.022789985 0.009919472
0003d0 c6 e5 aa bd b7 a9 4b bd 1c 8e 0b bd 99 76 10 bd
       -0.08344607 -0.0497224 -0.034071073 -0.035269354
0003e0 84 6b 3e 3d 21 0e de bb cc be c0 3c c7 c7 b4 3d
       0.046489254 -0.0067765866 0.023528479 0.08827167
0003f0 a6 fd e1 3d aa b6 e2 3c 71 55 a7 3d 0b 77 ae bc
       0.11034708 0.027674992 0.081705935 -0.021296998

fc2.bias f4 [100]
000000 31 92 2f 3d 03 f6 5e bc 98 4b 31 3c 96 9a 94 3d
       0.04286403 -0.013608458 0.010821246 0.072560474
000010 6a 89 bf bc 40 26 a5 bd 15 fe 22 3d b7 87 4d 3d
       -0.023380954 -0.08063936 0.039793093 0.050178256
000020 df 66 9e 3c 5c d3 8a bd ea 58 8e 3d 1d 5e 2e ba
       0.019336162 -0.06778595 0.06950553 -0.0006651597
000030 92 b2 73 bd 98 0d d4 3b 9c 12 6d bd 0b 0e b4 3d
       -0.05949647 0.006471347 -0.057879075 0.08791741
000040 80 7a 90 bd 4f 9d 4c bd 01 75 11 bd 96 18 b2 3d
       -0.07054615 -0.04995471 -0.035511974 0.08696096
000050 02 c4 27 3d a0 d3 a7 3d c0 7c 83 bb a2 0a 5e bd
       0.040958412 0.08194661 -0.004012674 -0.05420936
000060 d4 0e ea 39 37 c0 af 3d 53 e9 5f bd ff 36 b0 3d
       0.00044643006 0.08581584 -0.054665875 0.0860424
000070 a6 5f 4a 3d 94 77 cc 3a 5c 55 6e ba 4f 19 7d bd
       0.049407624 0.0015599602 -0.0009091699 -0.061791714
000080 84 f9 dc 3c 7f 4e ff bc 5b 79 b5 3c 14 18 8d 3d
       0.026974447 -0.03116536 0.022152593 0.06889358
000090 dc ab 49 3b e2 65 a0 bd 94 93 63 bd 09 78 04 3d
       0.0030772602 -0.078319326 -0.055560663 0.032341037
0000a0 0d 06 3c bd 59 81 6a bc 3a 1a f9 3c 2e 3e d3 3c
       -0.045904208 -0.014313065 0.030408014 0.025786486
0000b0 28 e3 74 bd e9 d3 9d bd 7b 9f 90 3d ee d2 54 bc
       -0.059786946 -0.07706434 0.070616685 -0.012989743
0000c0 50 04 21 3d 85 e1 4a bb 0d a4 bf 3a 9e 4c 51 bc
       0.039310753 -0.0030957174 0.0014621034 -0.012774615
0000d0 f4 e9 8c 3d 84 6b 85 bd b7 6f ae 3d d1 f1 16 bd
       0.068805605 -0.065146476 0.08517402 -0.036851708
0000e0 d3 99 18 3d ab d5 1e 3d 25 b2 8b bd ea 56 91 bd
       0.037256073 0.03877799 -0.06821088 -0.07096656
0000f0 af 24 16 bc 8d f9 05 3d 02 a5 a0 3d 45 43 0a 3d
       -0.0091640195 0.032708693 0.07843973 0.03375556
000100 a3 78 84 bd 2c a7 4d bd 78 e7 00 bd c9 e7 1e bd
       -0.06468322 -0.050208256 -0.031470746 -0.038795266
000110 ff de 6d 3d 5e 66 47 bd 96 ad 45 bd e9 76 1d 3d
       0.058073994 -0.04868161 -0.048261248 0.03844348
000120 c5 f9 82 bd cc 7e 85 3d 35 df c5 bc c6 11 12 3d
       -0.06395296 0.06518325 -0.024154285 0.03566148
000130 76 e8 b1 3d a8 c5 57 bd 1a 6e 32 3d e7 f4 b2 bb
       0.086869165 -0.052678734 0.043562032 -0.0054613235
000140 4a bc 63 3d 88 8f 88 3d 46 7a 70 3d 92 03 9a bd
       0.05559949 0.066680014 0.05871036 -0.07520212
000150 53 37 84 bd fb 85 3e bd 91 f7 9b bd cc f7 a4 3c
       -0.06455865 -0.046514492 -0.07615579 0.02013769
000160 a4 85 3c 3d 26 41 64 3d e9 ad 0a bd 7a 0f 33 bd
       0.046025887 0.055726193 -0.03385726 -0.04371593
000170 c0 57 af bd b5 62 22 bd 00 34 4b 3d 3f 5f 79 3d
       -0.08561659 -0.039644916 0.049610138 0.06088185
000180 65 47 a0 bc 21 44 96 3d 73 38 04 3c ea e8 8d 3b
       -0.019565294 0.07337213 0.008070099 0.004330744

bn2.weight f4 [100]
000000 0b 8e 80 3f 21 7c 80 3f af bb 82 3f ec 4d 7d 3f
       1.0043348 1.0037881 1.0213526 0.98947024
000010 56 92 7b 3f 5b 3b 81 3f d8 60 7e 3f 60 23 80 3f
       0.98270166 1.0096239 0.9936652 1.0010796
000020 5e 02 80 3f ed 13 85 3f 91 63 76 3f 2e a7 78 3f
       1.0000722 1.0396706 0.96245676 0.97130096
000030 e9 71 7c 3f 23 0e 84 3f 19 4d 7b 3f 22 9b 82 3f
       0.98611313 1.0316814 0.98164517 1.0203593
000040 54 de 7b 3f 65 ae 7e 3f 29 0e 7f 3f 47 bf 7f 3f
       0.9838612 0.99484855 0.9963098 0.9990124
000050 0c a5 7e 3f 88 05 7b 3f b2 54 7b 3f a5 92 7a 3f
       0.9947059 0.98055315 0.9817611 0.9788001
000060 8a 19 7c 3f e1 b6 81 3f a5 80 7b 3f 36 13 7a 3f
       0.9847647 1.0133935 0.9824317 0.97685564
000070 5b 27 7f 3f 91 94 85 3f 95 e4 81 3f 96 11 80 3f
       0.99669427 1.0435964 1.0147883 1.0005367
000080 75 13 7d 3f 72 54 81 3f 7b 79 7e 3f d7 29 81 3f
       0.98857814 1.0103896 0.99404114 1.0090894
000090 36 f4 7f 3f db 76 81 3f 41 11 7e 3f 02 bf 80 3f
       0.9998201 1.0114397 0.9924508 1.0058291
0000a0 f5 27 82 3f 38 6d 80 3f cf 7c 78 3f 22 a9 80 3f
       1.0168444 1.0033331 0.9706544 1.0051615
0000b0 51 ec 7b 3f cd 7c 7e 3f 05 be 7e 3f fb d5 81 3f
       0.98407465 0.9940918 0.99508697 1.0143427
0000c0 0b e9 82 3f 6a 52 7d 3f f7 04 82 3f 2d 5e 81 3f
       1.0227369 0.9895388 1.0157765 1.0106865
0000d0 a4 4e 7b 3f 93 f9 7b 3f ab 48 7f 3f b6 af 80 3f
       0.9816687 0.98427695 0.9972026 1.0053623
0000e0 9f 21 7b 3f 57 de 81 3f c9 16 7f 3f 4d cd 7f 3f
       0.98098177 1.0145978 0.9964414 0.9992264
0000f0 fd 00 7f 3f c1 b3 7c 3f c9 29 80 3f 42 6b 82 3f
       0.99610883 0.9871178 1.0012752 1.0188982
000100 50 ab 7f 3f 76 c0 80 3f d0 e1 7f 3f b4 62 80 3f
       0.9987078 1.0058734 0.9995394 1.0030122
000110 4b 52 7c 3f 4e 49 82 3f d9 23 7c 3f 40 8f 80 3f
       0.9856307 1.0178621 0.984922 1.0043716
000120 bd 33 87 3f 62 68 7a 3f fa 48 7f 3f 9e e7 7d 3f
       1.0562664 0.97815526 0.9972073 0.99181545
000130 9f 72 80 3f 70 de 82 3f f5 6d 7d 3f 93 d3 7c 3f
       1.003498 1.0224133 0.98995906 0.98760337
000140 b9 9b 7b 3f 4e c2 81 3f 94 2c 7b 3f 66 05 7c 3f
       0.9828449 1.0137422 0.98114896 0.9844574
000150 b9 58 7b 3f 78 7c 81 3f 84 b1 81 3f dd aa 7d 3f
       0.98182255 1.011611 1.0132298 0.9908884
000160 7c c9 7f 3f eb b5 81 3f d5 26 7e 3f db 96 81 3f
       0.99916816 1.0133642 0.99278 1.0124162
000170 f1 0c 7f 3f 07 0b 80 3f 83 59 81 3f 57 c0 83 3f
       0.9962912 1.0003365 1.0105442 1.0293072
000180 ed 95 78 3f ac 24 81 3f 7b a6 82 3f 9c b7 82 3f
       0.9710377 1.0089316 1.0207056 1.0212283

bn2.bias f4 [100]
000000 42 da af 3c ff 15 50 3c ba 0a 2b 3c 98 aa d4 bc
       0.021466378 0.012700557 0.010439569 -0.025960252
000010 20 14 e9 3b 6d 44 ca 3c 1b e0 d9 3b 5c aa c7 3b
       0.007112995 0.024690831 0.00664903 0.0060933065
000020 ae bf 69 bb 92 89 2d 3c 68 51 96 bc 14 a1 3e 3c
       -0.0035667229 0.010591881 -0.018349364 0.011635084
000030 4d f8 5d 3c ad 5d 35 bb cb 9f 04 3c 63 9a 2a 3d
       0.013547969 -0.0027674243 0.008094738 0.04165114
000040 78 10 27 3c aa 43 a8 3c 8a 80 f3 3b cc f3 22 3c
       0.010196798 0.020540077 0.0074310945 0.009945821
000050 73 b7 23 bc c5 7f 04 3b d6 d5 55 bc 1b 39 83 bb
       -0.009992468 0.0020217758 -0.013051471 -0.0040046102
000060 1f e8 ca bb db 6f a1 3b dc 2c b6 39 14 a0 9e 3b
       -0.006192222 0.0049266643 0.00034747168 0.00484086
000070 ab 92 eb 3b 38 66 3b 3c 7d b6 5a 3c cc 79 27 3d
       0.007189115 0.011437945 0.013349173 0.04088764
000080 54 ca 28 bb 71 62 2a 3c 34 17 26 3b 39 87 1a 3d
       -0.0025755363 0.010399447 0.002534342 0.037726615
000090 f5 ad 55 3c 39 39 c0 3c 31 fc 30 3b 8d 3f c6 3b
       0.013041963 0.023464786 0.0027005787 0.0060500563
0000a0 67 86 8e 3c d8 51 d4 bc d3 54 a6 3c 7e 50 84 bb
       0.017398072 -0.025917932 0.02030412 -0.0040379157
0000b0 f2 d9 e4 b9 2a a3 e4 bb 36 8d 11 bc 10 ef ba 3b
       -0.0004364993 -0.0069774585 -0.008883765 0.005704768
0000c0 0f d6 49 3c 62 ee e0 b8 72 f3 70 3b 88 9a bd 3c
       0.012319102 -0.000107255546 0.0036766198 0.023144975
0000d0 62 7c b2 ba a8 16 88 bb d6 f1 4e 3b 9a 5c 18 ba
       -0.0013617391 -0.0041530915 0.003157725 -0.00058121386
0000e0 94 ec 0e bc bf 3c 63 3b 16 55 b2 ba 33 3a a8 3c
       -0.008723397 0.0034673659 -0.001360568 0.020535564
0000f0 66 39 75 bb 62 66 ca 3b d2 ba 98 3b 46 d5 a3 bb
       -0.0037418245 0.0061767558 0.0046609426 -0.0049997894
000100 d4 d8 6d 3c 47 3e 43 3c 90 d9 31 bc e1 37 c5 bb
       0.014517028 0.011916704 -0.010855094 -0.006018624
000110 3c fa 17 bc d4 df f6 3b fd 1a 0c 3c 73 e2 51 3c
       -0.009275969 0.0075340066 0.008551356 0.012810337
000120 cb 9c d8 3c bd 92 ec bb 0c ea 49 3b 88 ae af 3c
       0.026441952 -0.007219641 0.0030809669 0.021445528
000130 b6 6a b3 3c 10 81 72 3b 38 cf 3b 3c 71 6d e9 3b
       0.02190147 0.0037003197 0.011462979 0.007123642
000140 cb ba c8 bb 5a 5d 90 3c 22 91 89 3c cd 92 57 bb
       -0.006125783 0.017622638 0.016792838 -0.0032893897
000150 4f 49 a1 bb e7 e9 b0 3c 4f 0e 35 bc 26 50 13 bc
       -0.004922069 0.021595908 -0.011050775 -0.008991277
000160 de b4 49 bc 2f 39 be b9 a0 80 93 3c a4 8a 41 3a
       -0.0123111885 -0.0003628223 0.01800567 0.0007383025
000170 ed 98 68 3b b0 3c bd 3b bc 81 e4 3b 77 3b de 3c
       0.0035491541 0.005775057 0.0069734734 0.027127964
000180 6d 62 82 bc 24 d4 c1 3b ab be 05 3c 62 70 fb 3b
       -0.015916074 0.0059151817 0.008163135 0.007673309

bn2.running_mean f4 [100]
000000 76 9b 0f bd 3f 17 d6 3a 13 10 0c 3d b4 a2 9c bd
       -0.03506037 0.0016333832 0.034195017 -0.07648221
000010 21 95 14 bd ea fc 9b bd 48 bd f4 bd 1f 51 b3 bc
       -0.036275033 -0.07616599 -0.11950165 -0.021889267
000020 75 80 ae 3e 83 03 41 be 8e 31 16 3e b6 8a ed 3c
       0.3408238 -0.18848996 0.14667341 0.028996807
000030 12 ce 9d 3d 43 39 0a be 4e 4c 82 be d9 42 91 3d
       0.077053204 -0.13498406 -0.2544884 0.07092828
000040 e0 e3 46 bd 7b 6c e1 bc 06 4f fa bd 04 02 c2 bb
       -0.048557162 -0.027517548 -0.12222104 -0.0059206504
000050 2c de 37 be 3b 0d 1d 3e 78 83 a8 bd d3 a5 8e 3e
       -0.17955846 0.15337078 -0.08228201 0.2786089
000060 24 dd 06 bd fe 83 8d 3e 3e de 72 be b7 26 3f bd
       -0.03292574 0.27639765 -0.23717591 -0.04666778
000070 ac e3 fe bd e7 88 71 bd 6c 28 14 be d0 95 8a 3d
       -0.12445769 -0.05896845 -0.14468545 0.06766856
000080 d6 93 21 be ff ea 33 be 55 7c 27 be 36 d0 91 bd
       -0.15779051 -0.17570113 -0.16356023 -0.07119791
000090 03 b4 38 be 62 49 76 be 7a 0e 17 be d6 c7 ea bc
       -0.18037419 -0.24051431 -0.14751616 -0.028659742
0000a0 13 82 55 be 82 af c2 bc db ac d7 3d e2 08 8c be
       -0.208504 -0.02376533 0.105310164 -0.27350527
0000b0 10 c5 1a bd 08 1f ef bd d6 b9 de 3c f1 e7 03 bd
       -0.03778559 -0.116758406 0.027188223 -0.03220362
0000c0 58 82 17 be c9 ce 22 3e a2 5d 4f be ce 9f 36 be
       -0.14795816 0.15899195 -0.20250562 -0.17834398
0000d0 26 31 9a 3d be ff ac bd d3 44 0e be b9 07 15 be
       0.075289056 -0.084472165 -0.13893442 -0.14553727
0000e0 de a3 62 3e ba f3 2c bd a6 bb b4 3b c4 f4 6b be
       0.22132823 -0.042224623 0.0055155335 -0.2304259
0000f0 91 75 4b bd 95 ef 05 3e 07 50 7b 3d 17 c5 94 bd
       -0.049672667 0.13079675 0.061355617 -0.072641544
000100 a0 26 9e be cf 2b e6 be 4e ee 96 bd c2 9e 99 be
       -0.30888844 -0.44955298 -0.07369672 -0.30003935
000110 90 71 da bd 9a 94 a8 bd 7b 19 aa 3d 35 db c2 bd
       -0.106661916 -0.082314685 0.08305641 -0.09514467
000120 ea a5 32 be 82 93 b5 bc 8d 34 2e bd 61 b8 64 bd
       -0.17446104 -0.022165064 -0.042530585 -0.0558399
000130 32 bc 13 bd 04 97 77 be d9 f6 23 be d1 84 23 3d
       -0.03606815 -0.24178702 -0.16012134 0.039921585
000140 f7 c7 da 3d bb 5a e4 bd c6 66 a8 3d 0f 21 61 3d
       0.106826715 -0.11150118 0.082227275 0.054963168
000150 e4 81 88 be fd 0a 14 be 12 65 44 3c b0 02 cd bb
       -0.266616 -0.14457317 0.011986988 -0.006256424
000160 fb f1 3c be f5 90 84 bd b4 83 e5 3c 33 4c 00 be
       -0.18451683 -0.06472961 0.028016903 -0.12529068
000170 a1 18 79 be 8b a1 f5 bd 6f 27 28 3e e6 06 d8 bd
       -0.24325801 -0.119937025 0.16421293 -0.10548191
000180 e4 95 b0 3e 66 ba a3 bc 49 48 8c 3c 26 fd 05 be
       0.34489357 -0.019986343 0.017124312 -0.1308485

bn2.running_var f4 [100]
000000 bd 82 0a 3c 99 94 39 3c 20 35 fe 3b 95 99 23 3c
       0.008454022 0.011326932 0.007757798 0.009985347
000010 50 85 05 3c d6 4b 00 3c 2c 7d 09 3c 9c 2b 27 3c
       0.00814946 0.007830581 0.00839166 0.010203268
000020 14 a6 1d 3c 90 b6 07 3c 03 14 e9 3b 20 f7 e8 3b
       0.009622116 0.008283272 0.0071129813 0.0071095377
000030 df 92 2a 3c 4a 9d df 3b ad 3b 14 3c c0 4e f7 3b
       0.010410993 0.0068241702 0.009047431 0.0075472295
000040 36 78 33 3c fe 8d 22 3c b8 c0 eb 3b 2a d8 1c 3c
       0.0109539535 0.009921549 0.0071946047 0.009573022
000050 4c dd 1c 3c b5 d4 08 3c c3 a0 e4 3b 37 b8 31 3c
       0.009574246 0.008351495 0.006977172 0.010847143
000060 ec 2d 21 3c ef 81 1d 3c 8b 02 0e 3c 04 1c ee 3b
       0.009837609 0.009613498 0.0086675985 0.0072665233
000070 64 8a 20 3c 6a 97 17 3c 1e c4 11 3c 1b 1a f3 3b
       0.00979862 0.0092524085 0.008896856 0.0074188835
000080 b7 72 3d 3c 40 32 26 3c 1e cd 2e 3c b3 54 1f 3c
       0.011562995 0.0101438165 0.010669021 0.009724784
000090 72 4a 41 3c de f5 cc 3b e1 0f 15 3c 99 d6 df 3b
       0.011797534 0.0062548956 0.009098024 0.006831002
0000a0 be e5 08 3c 2b 89 ee 3b 84 fc ed 3b 4e 79 79 3c
       0.008355556 0.0072795353 0.007262768 0.015226675
0000b0 73 a9 2e 3c 87 df 48 3c 43 21 0c 3c c1 3d 5a 3c
       0.010660517 0.012260324 0.008552852 0.013320387
0000c0 64 f8 f8 3b 8a b5 e4 3b 60 26 25 3c 26 e3 27 3c
       0.00759797 0.006979649 0.01007995 0.0102470275
0000d0 65 e2 f9 3b 58 cf 3f 3c 2e a0 04 3c 71 e9 17 3c
       0.0076258653 0.011707149 0.00809483 0.009271965
0000e0 1b 10 a1 3c 85 1a 2e 3c 92 06 e8 3b cb f0 12 3c
       0.019661 0.01062644 0.0070808614 0.008968542
0000f0 4d 85 e0 3b af c0 68 3c ac 3f 10 3c 59 b6 1a 3c
       0.006851828 0.014206096 0.008804243 0.009442889
000100 ce 7e 51 3c d7 25 7a 3c 09 eb 28 3c ea 03 1e 3c
       0.01278658 0.015267811 0.010309943 0.009644488
000110 d9 ea 61 3c 20 a5 17 3c ba 24 14 3c 9e 4d 18 3c
       0.013788902 0.009255677 0.009041959 0.009295849
000120 89 7b f7 3b 88 74 f5 3b 7a 6e 33 3c c0 86 35 3c
       0.0075525683 0.0074906982 0.010951633 0.01107949
000130 07 0c 13 3c b5 e1 c7 3b 59 d0 32 3c 6d 39 2a 3c
       0.0089750355 0.0060999044 0.010913932 0.010389668
000140 31 64 27 3c 16 66 0a 3c 1f 9c 3a 3c a0 79 35 3c
       0.010216759 0.008447191 0.011389761 0.011076361
000150 87 0b 57 3c 9c e8 e2 3b 33 9d dd 3b 0c 5c 1b 3c
       0.013125307 0.006924702 0.0067631244 0.009482395
000160 44 da 26 3c 76 3f e8 3b 30 4f 1c 3c 3d 77 db 3b
       0.0101838745 0.0070876433 0.009540364 0.006697564
000170 b9 49 0f 3c e9 f0 f4 3b 7a d0 16 3c 82 65 30 3c
       0.008745604 0.007475008 0.009204978 0.010766389
000180 4f f9 67 3c ea d9 1a 3c f0 25 b8 3b 0a 19 df 3b
       0.014158561 0.009451369 0.005619757 0.006808405

fc3.weight f4 [64, 100]
000000 84 c7 af 3d aa 5c c1 bd 5b 88 88 bd 58 3d 3b 3d
       0.085829765 -0.094415024 -0.06666633 0.0457128
000010 a6 a1 11 bd 98 e7 2f 3d 6d cd f1 3c 24 bd 27 3d
       -0.03555455 0.042945474 0.0295169 0.040951863
000020 7a e4 3b bb 68 1e 70 bc f7 22 2e 3d d9 05 83 bd
       -0.0028670118 -0.014655687 0.042513814 -0.063976
000030 24 b7 b4 bc 58 10 16 3d 7c ee 05 bd 12 b1 b8 bd
       -0.022059985 0.03663668 -0.03269814 -0.090181485
000040 b8 71 5d bd 5f a6 8a bc d7 b9 2e bd a5 f7 9c 3d
       -0.05406353 -0.016925035 -0.0426577 0.07664422
000050 67 16 98 3c c5 0d a9 3d 6a 80 57 3d 8d 17 04 3d
       0.01856537 0.082545795 0.0526127 0.032249022
000060 f6 35 39 bd 54 25 96 3d bf b4 d7 bd a6 c2 40 3c
       -0.045217477 0.073313385 -0.105325215 0.011765158
000070 ac 23 6f 3d ef 7d 00 bd ab e7 08 bd 08 97 e1 bd
       0.05838363 -0.0313701 -0.03342406 -0.11015135
000080 a9 3d 81 3d fc 96 8c bd 1e 77 cc bc 7a 7b 96 3d
       0.06310589 -0.068647355 -0.024959143 0.0734777
000090 23 1e 95 bc 97 92 5c 3c f5 69 45 bd 97 68 f3 bc
       -0.018202847 0.013462684 -0.04819675 -0.029712958
0000a0 a5 d5 f4 3c fb 08 0a bd ff b6 a2 3c b6 0f fb 3d
       0.02988703 -0.03369997 0.01986265 0.12258856
0000b0 b5 69 4d bd e9 33 3c 3d 7a e3 24 3d fa b4 8b 3d
       -0.05014964 0.045947943 0.040256 0.06821628
0000c0 f2 dc fb 3a 48 ab 16 bd 86 d1 25 bd aa 0a aa bc
       0.0019215627 -0.03678444 -0.04048302 -0.020757038
0000d0 83 40 90 bd 70 77 8f bd 10 da eb 3d b8 da bf 3d
       -0.07043555 -0.07005203 0.115162015 0.09367889
0000e0 4b 5c e0 3c b8 d4 3b 3d 4f 3f 84 3d 85 17 83 bd
       0.027387759 0.04585716 0.06457388 -0.0640097
0000f0 97 14 41 bb 3d 0e c0 3c 2f 27 0a be 24 49 c5 3c
       -0.0029461735 0.02344429 -0.1349151 0.024082728
000100 2a a2 8e 3d 96 58 5e bd a7 47 71 bd af 31 24 bc
       0.06964524 -0.0542837 -0.058906224 -0.010021611
000110 f1 df 26 bd 9c 4a 12 bd ee 5c 04 bd 75 c3 3c 3d
       -0.04074091 -0.035715684 -0.032315187 0.04608484
000120 2b ad ae bd 95 79 4b bd 6a 75 25 bd 0d 76 ed bd
       -0.08529123 -0.049676497 -0.040395178 -0.11594782
000130 36 36 80 bc 44 b5 a2 bd c0 5e 8f 3d 99 ca 29 3d
       -0.01565085 -0.0794473 0.07000494 0.041452978
000140 f2 e2 b4 bd ad 72 c6 3c 02 e2 b2 bb 34 82 bc bd
       -0.08832349 0.024224604 -0.005459071 -0.09204522
000150 15 26 d9 3c 57 3b ae 3d df 6f a8 3d 20 fd 79 3d
       0.026507417 0.08507412 0.08224463 0.061032414
000160 f7 3d 90 3d d9 48 6f bc 61 fb 96 bd fd 5b ac bd
       0.07043069 -0.014604771 -0.073721655 -0.08415983
000170 88 8d 59 bd 10 a3 ac 3d c4 7b a3 bd 90 38 d6 bd
       -0.05311349 0.08429539 -0.07982591 -0.10460007
000180 0a cc 00 3d a1 4d 84 3d 12 a1 11 b8 35 79 c3 bd
       0.031444587 0.06460119 -3.4720702e-05 -0.09544603
000190 03 34 b3 bc 32 d5 8d 3d 4d cc 60 bd f3 76 3e 3d
       -0.021875387 0.069254294 -0.054882336 0.046500158
0001a0 73 2a c4 bd 68 1a 35 bc d0 8e 7c bd fb 32 b5 3d
       -0.09578409 -0.011053659 -0.061659634 0.088476144
0001b0 8b da 2d bd 08 84 ed bd 6a fe a2 3d 3d a4 d4 3b
       -0.042444747 -0.115974486 0.07958682 0.0064893053
0001c0 24 d1 06 bb 1e fd 42 bc 55 51 9b bd 54 c2 5c 3c
       -0.0020571435 -0.011901168 -0.07583872 0.013474066
0001d0 eb d9 77 bb 3d 5c 0a 3e 2b 7a 35 bd c8 77 a4 bc
       -0.0037819098 0.13511749 -0.04430596 -0.020076647
0001e0 4e 6f fb bd 71 85 34 3d c0 1d 99 3d 19 ea a6 3c
       -0.12277089 0.044072572 0.074763775 0.020375298
0001f0 ff 8c 62 bd b1 38 0e 3d 94 29 3e bd 65 62 94 3d
       -0.055310246 0.034722034 -0.04642637 0.0724533
000200 6c d8 dd 3c 6e 16 d1 3d 6a 8b 4e bd ed 84 99 bc
       0.027080737 0.10209356 -0.050425924 -0.018740142
000210 3b 2c a4 bc 14 78 43 3c 61 f5 2c bb eb ce 6a bc
       -0.020040622 0.011930484 -0.0026391374 -0.01433156
000220 0d 7b 4f bd 43 a2 ae 3c 63 77 aa bc 6d 62 4a 3d
       -0.05065446 0.021317607 -0.020808881 0.049410272
000230 78 8a c6 bc 01 ae a4 bd 8a 47 83 3d 85 98 0a bd
       -0.024235949 -0.08041001 0.06410129 -0.03383686
000240 5e 4f b1 3d 59 99 96 bd 19 75 c9 3d 9c 38 80 bd
       0.08657716 -0.073534675 0.09836788 -0.062607974
000250 9a e2 03 bd 89 48 44 3d 06 56 d0 bd 53 85 54 bd
       -0.032198526 0.047920737 -0.10172658 -0.05188496
000260 8c 12 07 3d f2 ad 1c bd 2c 11 aa bc 8f 1a d8 3c
       0.032976672 -0.038251825 -0.020760141 0.026379852
000270 89 bd 5c bd 9e 94 d5 3c 4d b1 87 bd e6 d4 16 3d
       -0.053891692 0.026071843 -0.06625614 0.03682413
000280 c9 95 82 3d 43 60 99 3c cc 1c b8 3d af 7b 18 bd
       0.063762255 0.018722659 0.089898676 -0.03722733
000290 05 44 3b bd 5c d0 b5 bc 74 84 51 bd e0 62 14 3d
       -0.045719165 -0.02219408 -0.051151708 0.036227107
0002a0 70 dd c3 bd 31 e4 f1 bd 5a ce 0b 3d 8d 5a 43 3d
       -0.0956372 -0.11811102 0.03413234 0.047693778
0002b0 9e ca 28 3c 81 07 60 3c 9c 87 10 bd 4d 98 82 bd
       0.010302214 0.013673664 -0.035285577 -0.06376705
0002c0 35 fd ce 3d 2f 2a 01 3d 23 1d 9b bd 9a 0d dd 3c
       0.10106889 0.03153437 -0.07573917 0.026984025
0002d0 9a 19 69 3d cc 3d 7b bd e9 a1 a0 bd 3b 08 84 bd
       0.05690918 -0.06133823 -0.07843382 -0.06446882
0002e0 a0 cc 4c 3d ef 84 84 3d 60 16 8b 3d 7a e7 21 3d
       0.049999833 0.064706676 0.06791377 0.039527394
0002f0 a0 f9 8a bd 89 6f 78 3d 9b 9d aa 3b 0a 1c 21 3d
       -0.067858934 0.060653243 0.0052067763 0.03933338
000300 86 b7 a2 3c 7c a8 b6 bc ae 84 46 bd dc 7b ad 3d
       0.019862901 -0.022297136 -0.048466377 0.0847089
000310 4e 5d ba bc 71 47 05 3d 32 76 bb 3c e4 ef 58 bb
       -0.02274957 0.032538835 0.022883508 -0.003310197
000320 82 de 6f 3d 83 12 08 bb 49 fa bb 3d a6 5f 3d bd
       0.05856181 -0.0020762987 0.091785975 -0.046233796
000330 84 f2 33 bd d7 13 e8 3d 88 09 42 bd 95 60 26 bc
       -0.043932453 0.11331909 -0.04737237 -0.010154863
000340 df 01 68 3d ed 18 ab bc ec 72 a1 3d 95 ad 40 3c
       0.05664241 -0.020885909 0.07883248 0.011760135
000350 33 4e 9f bd 8f c1 cd 3c b6 e0 3c 3d bc ca a8 bd
       -0.07778587 0.02511671 0.04611274 -0.082417935
000360 16 31 94 bd 22 08 c9 bc a1 55 d2 bb ac da 11 bd
       -0.07235925 -0.02454001 -0.006418899 -0.035608932
000370 ea db 38 3d c5 48 ba 3d 1e a7 0b 3d d8 b0 05 bd
       0.0451316 0.09095911 0.034094922 -0.032639354
000380 79 a2 6b bd 80 d7 6f bd 38 a2 7f bd 17 37 49 bd
       -0.057527993 -0.058555126 -0.062410563 -0.049124803
000390 24 f1 db bd 8d 88 1e bd ac fb a4 bd 8e 1c f7 bd
       -0.10739353 -0.038704444 -0.08055815 -0.12065993
0003a0 7c 79 d8 bd 3f 05 c8 bb 96 3f 97 bd 40 16 51 3d
       -0.10570046 -0.006104141 -0.07385175 0.05104661
0003b0 a7 02 01 3d 05 cd 9f 3d 57 e8 4a 3c 70 6d 9d bd
       0.03149667 0.07802776 0.012384496 -0.07686889
0003c0 fe f6 df 3c 2d 21 10 bd f7 5e 50 3d 0b af 30 bd
       0.027339455 -0.03518789 0.050871816 -0.043135684
0003d0 8d a9 70 bd 21 07 22 3d 06 96 3e bd d5 21 38 bb
       -0.058755446 0.03955758 -0.046529792 -0.0028096337
0003e0 3a c4 b9 3d 61 06 80 bd 51 0c 4e bd f1 0d d7 bd
       0.0907063 -0.06251217 -0.050304715 -0.10500706
0003f0 b6 67 13 bd fb 07 bd bd 8b 3a 11 bd 2b d2 75 3d
       -0.03598758 -0.09230038 -0.03545622 0.060014885

fc3.bias f4 [64]
000000 bd b6 5f 3d f0 8f 32 bd 60 4c 08 3d 00 fe c6 3b
       0.054617632 -0.0435943 0.033275962 0.0060727596
000010 33 ec 26 3c 75 de 86 3d b7 50 c6 3d 9a 75 43 bc
       0.01018815 0.06585399 0.09683364 -0.011929894
000020 12 ef 9c 3d 63 3b 8c bd 8d 71 18 bd 10 80 6e 3d
       0.076627865 -0.068472646 -0.037217665 0.0582276
000030 4a 25 c0 3d 99 e9 4b 3a cd 54 bc 3b 4d a8 6c 3d
       0.09382112 0.0007778644 0.0057474137 0.05777769
000040 4d 0b db bb f3 9a 1f 3c 00 15 39 3d 67 57 1b bb
       -0.006684697 0.009741533 0.045186043 -0.002370322
000050 80 72 77 bc c2 63 a3 3d 33 02 71 3c b3 45 47 3c
       -0.0151029825 0.07978012 0.014709997 0.012162614
000060 b0 6c 12 bd 78 e8 a3 bd 6d 66 20 3d 9a 10 07 bd
       -0.035748184 -0.08003324 0.03916018 -0.032974817
000070 d3 a9 ff 3c a0 80 4a 3d 9a 13 a5 bc 73 e2 72 bd
       0.031208908 0.049439073 -0.020150948 -0.05929799
000080 68 29 b0 3d 47 8f 12 bd 8d e6 1c 3d 27 14 ca 3c
       0.086016476 -0.03578117 0.038305808 0.024667813
000090 9a c4 2e 3b c7 63 9e bd 37 60 b2 3d 47 3f a7 bd
       0.0026667477 -0.07733875 0.08709758 -0.08166366
0000a0 1a 3a c6 bc fa 7e b7 3c 78 f6 87 bd c0 1e 89 bd
       -0.024197627 0.022399414 -0.06638807 -0.06695318
0000b0 60 48 b3 bd 5d 94 0b 3d 03 f4 61 bd 67 58 ea 3b
       -0.08754039 0.034077037 -0.05516435 0.0071516517
0000c0 b3 0b bc bd 3b ba 97 3d 4d 37 b3 3b 13 6c dd bc
       -0.09181919 0.074085675 0.005469239 -0.027029073
0000d0 cd 14 ba bc 00 8b cd 3c 00 9a 90 bc e0 e2 6f bd
       -0.022714997 0.025090694 -0.017651558 -0.058565974
0000e0 17 8e 7c bd f3 8b 29 3d df df 9a bd cd 98 41 bc
       -0.061658945 0.04139323 -0.07562231 -0.011816216
0000f0 53 a4 aa 3d ad 9c 6f bd 5a 50 0f bc a7 9b 7c 3c
       0.083321236 -0.058499027 -0.008747185 0.01541797

bn3.weight f4 [64]
000000 4d fc 9c 3f 87 25 9c 3f d9 0b 98 3f f6 db 99 3f
       1.2264496 1.2198952 1.1878616 1.2020252
000010 05 5c 94 3f d8 32 8c 3f f6 7d a1 3f c5 91 93 3f
       1.1590582 1.0953016 1.2616565 1.152886
000020 bb 42 97 3f e5 25 99 3f a9 e0 92 3f c6 9b 9f 3f
       1.181724 1.196469 1.1474811 1.2469413
000030 1d 04 92 3f d4 cd 98 3f 98 ac 9f 3f 3e 4c a0 3f
       1.1407505 1.1937814 1.2474546 1.2523267
000040 fd e2 96 3f 3a f5 9a 3f 72 7c 9b 3f 9d dd 94 3f
       1.1788021 1.2106087 1.2147353 1.1630131
000050 15 c1 9b 3f 18 c5 97 3f 0d 8a 9d 3f 1a b4 96 3f
       1.2168299 1.1857023 1.2307755 1.1773713
000060 a0 6c 92 3f 46 90 9e 3f 7f 0b 9b 3f 80 26 99 3f
       1.14394 1.2387779 1.2112883 1.1964874
000070 4d eb 92 3f 75 90 96 3f 8d f7 9d 3f 39 eb 9a 3f
       1.1478058 1.1762835 1.2341172 1.2103034
000080 c8 75 93 3f e7 bf 94 3f 27 38 9a 3f ce dd 9d 3f
       1.1520319 1.1621064 1.2048386 1.2333314
000090 5b a8 a4 3f b5 ae 97 3f f8 ef a4 3f 2f 0f 93 3f
       1.2863878 1.1850191 1.2885733 1.1489009
0000a0 df c8 95 3f db 53 95 3f fc 85 99 3f 2b 14 9c 3f
       1.1701926 1.1666216 1.1994014 1.2193655
0000b0 90 58 9d 3f dc bd a3 3f 68 b8 99 3f fe b4 9b 3f
       1.2292652 1.2792315 1.2009401 1.216461
0000c0 51 99 95 3f 3e e4 90 3f 11 3f 9e 3f c7 9d 90 3f
       1.1687413 1.1319654 1.2362996 1.129815
0000d0 28 85 97 3f 48 1e 9e 3f 8d 30 96 3f 6d cc 8f 3f
       1.1837511 1.2352991 1.1733567 1.1234261
0000e0 16 10 9b 3f 8c ab 95 3f 61 5c 94 3f 32 34 93 3f
       1.2114284 1.1692977 1.1590692 1.1500304
0000f0 c2 6c 92 3f 4d 53 97 3f 1b b3 99 3f 18 4e 91 3f
       1.143944 1.1822296 1.2007784 1.1351957

bn3.bias f4 [64]
000000 e7 1c 21 3e a5 0b 1e 3e 00 d7 34 3e ec 26 2e 3e
       0.15733682 0.1543413 0.17660141 0.17007035
000010 ef c0 ef 3d a5 6d 82 3d 0f 76 58 3e 4e f4 dd 3d
       0.11706721 0.06368569 0.21138786 0.10837613
000020 c1 79 01 3e a5 41 12 3e 37 b5 bd 3d a7 41 0c 3e
       0.12644102 0.14282854 0.092630796 0.1369692
000030 3b d6 cf 3d a3 6b 0d 3e 47 47 26 3e 9a 1b 3b 3e
       0.10148283 0.13810591 0.16238128 0.18272248
000040 e6 85 0e 3e e0 a2 1b 3e a1 07 0f 3e 74 1e ed 3d
       0.13918266 0.1519885 0.13967754 0.11578074
000050 01 d2 13 3e ea c4 15 3e 9a a0 08 3e ae ca 25 3e
       0.14435579 0.14625898 0.13342515 0.16190597
000060 05 95 ff 3d 55 c7 1a 3e 91 b0 03 3e a2 57 0b 3e
       0.12479595 0.15115102 0.12860323 0.13607648
000070 0f e1 ea 3d 32 27 20 3e 79 e0 3a 3e 32 cc e9 3d
       0.11468708 0.15639952 0.18249692 0.114159
000080 3e ac eb 3d db 0a 04 3e c9 39 1b 3e 5d b4 3e 3e
       0.11507462 0.12894766 0.15158762 0.1862349
000090 b6 ef 3b 3e 7e e8 12 3e 4f 76 4c 3e cc 4d 17 3e
       0.18353161 0.14346501 0.19967006 0.14775771
0000a0 14 66 29 3e 09 d3 f2 3d 34 f1 23 3e 8a fa 0d 3e
       0.16542846 0.11856658 0.1600998 0.13865104
0000b0 e6 2f 0a 3e 3b fc 19 3e d5 a5 f5 3d 44 79 2c 3e
       0.13494834 0.15037625 0.119945206 0.16843134
0000c0 10 b0 f2 3d 39 46 e2 3d 98 7a 18 3e d5 46 b8 3d
       0.118499875 0.1104855 0.14890516 0.08997885
0000d0 60 7f 00 3e 5a 4e 2a 3e 00 ad 04 3e f7 e0 f7 3d
       0.1254859 0.16631451 0.1295662 0.121034555
0000e0 39 c2 0a 3e b9 84 0e 3e 85 4a d3 3d 63 ac 07 3e
       0.13550653 0.13917817 0.10316948 0.13249354
0000f0 bb 8a d7 3d b1 59 c3 3d a5 4e 11 3e 18 80 9b 3d
       0.105245076 0.09538592 0.14190157 0.07592791

bn3.running_mean f4 [64]
000000 d7 b0 33 be a9 e7 f2 bd d2 b8 eb be 6b 2a c7 3d
       -0.17547928 -0.11860592 -0.46039444 0.097248875
000010 77 29 bf 3d 11 44 dc 3c 78 33 42 3e 2e 44 5d be
       0.09334081 0.026887925 0.18964946 -0.2160804
000020 c0 ed 5b be b8 43 ca bd ca 27 e8 3e 4b de fc 3d
       -0.21477413 -0.098761976 0.45342857 0.123470865
000030 e5 4c 8b 3e ea 2e 82 be 72 ca d4 bd b7 d3 42 3e
       0.27207103 -0.25426418 -0.10390176 0.19026075
000040 2b c0 7d 3d d6 9d 7b be fc c0 97 bd f4 89 04 3e
       0.061950844 -0.24571928 -0.07409856 0.1294325
000050 13 96 cd be 60 2e bd bd 4f 60 a3 3c 59 59 84 be
       -0.4015356 -0.09237361 0.019943384 -0.25849417
000060 6a b6 8e be a4 f6 83 bd 60 d6 b3 3e 62 8d c4 ba
       -0.27873546 -0.06443527 0.35124493 -0.0014995749
000070 49 62 40 3e a5 f5 0f be f6 27 a0 bd b9 48 d0 bc
       0.18787493 -0.1405855 -0.07820122 -0.025425302
000080 28 71 a0 be 63 8f 52 be 39 c2 2f be 41 92 a7 3d
       -0.3133633 -0.2056251 -0.17163934 0.081821926
000090 3c 4d 56 be 41 99 3b be 2c af 20 be 94 a8 b7 bc
       -0.209279 -0.1832018 -0.15691823 -0.022419252
0000a0 8d 93 43 be 61 6b 1a 3d 27 e5 30 3e 5f db bc be
       -0.19099255 0.03770006 0.17274915 -0.36886117
0000b0 f9 42 3f be 7e ee e5 be c7 61 d1 be 43 d1 08 3d
       -0.18677892 -0.44908518 -0.4089491 0.033402693
0000c0 be 05 23 be d2 d8 85 be ef c7 7e be 75 51 8d bd
       -0.15920159 -0.26141983 -0.24880956 -0.06900302
0000d0 e8 95 ac 3d ac 3e bc be 22 b7 45 3e b0 ea 98 be
       0.0842703 -0.36766565 0.19308141 -0.29866552
0000e0 43 1b 40 be e2 d6 25 3d 26 01 02 bf d7 4e 90 be
       -0.187604 0.04048813 -0.50783 -0.2818515
0000f0 a2 f6 7f be 0a 45 54 bd 5b eb 79 be e3 13 35 3e
       -0.24996427 -0.051823653 -0.24406187 0.17683367

bn3.running_var f4 [64]
000000 03 58 11 3e f9 c7 f8 3d f6 c2 34 3e b3 84 09 3e
       0.1419373 0.12147517 0.17652497 0.13429527
000010 de 1f 12 3e a3 3c ed 3d ca e9 20 3e c3 a8 d9 3d
       0.14269969 0.11583831 0.15714183 0.10627892
000020 d2 cd 00 3e b5 10 22 3e eb e6 ee 3d ba 05 0f 3e
       0.12578514 0.15826686 0.11665138 0.13967028
000030 03 f4 f2 3d 95 4b 23 3e ee 46 0e 3e f4 59 2e 3e
       0.11862948 0.15946801 0.13894245 0.17026502
000040 86 18 e9 3d 6f 77 10 3e e3 0b 15 3e d1 12 0b 3e
       0.113816306 0.1410806 0.14555316 0.13581397
000050 79 f0 20 3e 7e 11 53 3e 20 f2 fc 3d 18 db e4 3d
       0.15716733 0.20612141 0.12350869 0.11174601
000060 fb f8 08 3e 0a 1d 04 3e 5a e0 fb 3d 54 20 02 3e
       0.13376229 0.12901703 0.12298651 0.12707645
000070 29 c1 3d 3e 73 85 18 3e 02 ef 1a 3e 01 0d f7 3d
       0.18530716 0.14894657 0.15130237 0.12063027
000080 c9 98 76 3e 68 da 11 3e ce c3 07 3e f6 53 3d 3e
       0.2408172 0.14243472 0.13258287 0.1848906
000090 a2 32 25 3e f7 e3 09 3e 4a bf 25 3e e9 82 07 3e
       0.16132596 0.13465868 0.16186252 0.13233532
0000a0 33 36 fe 3d f0 cf 2e 3e dd 2a 04 3e cc ca 05 3e
       0.124126814 0.1707151 0.12906976 0.13065642
0000b0 85 be e8 3d 54 dd 34 3e 2f 48 18 3e 7f 15 00 3e
       0.11364464 0.17662555 0.14871286 0.125082
0000c0 3b e4 e3 3d d5 9e 45 3e cd 49 50 3e 83 89 08 3e
       0.11127516 0.19298871 0.20340653 0.13333707
0000d0 08 b6 e7 3d 53 15 cd 3d 55 4c 07 3e a8 9f 0e 3e
       0.113140166 0.10013833 0.13212712 0.13928092
0000e0 85 3e d7 3d bb ad 01 3e 35 9a 09 3e ff b2 fa 3d
       0.105099715 0.12663929 0.13437732 0.12241172
0000f0 ee 5f 0a 3e 34 df af 3d 6b b2 fc 3d ff 9c 89 3e
       0.13513157 0.085874945 0.12338718 0.2687759
